#map = affine_map<() -> (0, 10)>
#map1 = affine_map<()[s0] -> (0, s0)>
#map2 = affine_map<() -> (0, 32)>
#map3 = affine_map<() -> (0, 64)>
#map4 = affine_map<() -> (0, 3072)>
#map5 = affine_map<() -> ()>
#map6 = affine_map<(d0, d1) -> (d0, d1)>
#map7 = affine_map<(d0, d1, d2) -> (d0, d2)>
#map8 = affine_map<(d0, d1, d2) -> (d2, d1)>
#map9 = affine_map<(d0, d1, d2) -> (d0, d1)>
#map10 = affine_map<(d0, d1) -> (0, d1)>
#map11 = affine_map<(d0, d1) -> (d1)>
module attributes {torch.debug_module_name = "MLP"} {
  %0 = hls.dse.space @global() : () -> !hls.space {
    %1 = hls.dse.space @task0() : () -> !hls.space {
      %7 = hls.dse.const_param <impl> {value = #hls.impl<"" _ "">} : !hls.impl
      %8 = hls.dse.const_param <tile> {value = 0 : index} : index
      %9 = hls.dse.param @tile1 <tile> range() #map step 1 {value = 4 : index} : index
      %10 = hls.dse.space @default(%8, %9) : (index, index) -> !hls.space {
      ^bb0(%arg0: index, %arg1: index):
        %12 = hls.dse.param @parallel0 <parallel> range(%arg0) #map1 step 1 {value = 2 : index} : index
        %13 = hls.dse.param @parallel1 <parallel> range(%arg1) #map1 step 1 {value = 2 : index} : index
        hls.dse.space_pack %12, %13 : index, index
      }
      %11 = hls.dse.space_select %7 [#hls.impl<"" _ "">] %10 : !hls.impl, (!hls.space) -> !hls.space
      hls.dse.space_pack %8, %9, %11 : index, index, !hls.space
    }
    %2 = hls.dse.space @task1() : () -> !hls.space {
      %7 = hls.dse.const_param <tile> {value = 0 : index} : index
      %8 = hls.dse.param @tile1 <tile> range() #map step 1 {value = 4 : index} : index
      %9 = hls.dse.param @tile2 <tile> range() #map2 step 1 {value = 4 : index} : index
      %10 = hls.dse.space @default(%7, %8, %9) : (index, index, index) -> !hls.space {
      ^bb0(%arg0: index, %arg1: index, %arg2: index):
        %14 = hls.dse.param @parallel0 <parallel> range(%arg0) #map1 step 1 {value = 2 : index} : index
        %15 = hls.dse.param @parallel1 <parallel> range(%arg1) #map1 step 1 {value = 2 : index} : index
        %16 = hls.dse.param @parallel2 <parallel> range(%arg2) #map1 step 1 {value = 2 : index} : index
        hls.dse.space_pack %14, %15, %16 : index, index, index
      }
      %11 = hls.dse.space @vitis_gemm() : () -> !hls.space {
        %14 = hls.dse.const_param <template> {value = 1024 : index} : index
        %15 = hls.dse.const_param <template> {value = 32 : index} : index
        %16 = hls.dse.param @t_ParEntries <template> candidates [2 : index, 4 : index, 8 : index] {value = 4 : index} : index
        hls.dse.space_pack %15, %16, %14 : index, index, index
      }
      %12 = hls.dse.param @candidates <impl> candidates [#hls.impl<"" _ "">, #hls.impl<"vitis" _ "gemm">] {value = #hls.impl<"vitis" _ "gemm">} : !hls.impl
      %13 = hls.dse.space_select %12 [#hls.impl<"" _ "">, #hls.impl<"vitis" _ "gemm">] %10, %11 : !hls.impl, (!hls.space, !hls.space) -> !hls.space
      hls.dse.space_pack %7, %8, %9, %13 : index, index, index, !hls.space
    }
    %3 = hls.dse.space @task2() : () -> !hls.space {
      %7 = hls.dse.const_param <impl> {value = #hls.impl<"" _ "">} : !hls.impl
      %8 = hls.dse.const_param <tile> {value = 0 : index} : index
      %9 = hls.dse.param @tile1 <tile> range() #map2 step 1 {value = 4 : index} : index
      %10 = hls.dse.space @default(%8, %9) : (index, index) -> !hls.space {
      ^bb0(%arg0: index, %arg1: index):
        %12 = hls.dse.param @parallel0 <parallel> range(%arg0) #map1 step 1 {value = 2 : index} : index
        %13 = hls.dse.param @parallel1 <parallel> range(%arg1) #map1 step 1 {value = 2 : index} : index
        hls.dse.space_pack %12, %13 : index, index
      }
      %11 = hls.dse.space_select %7 [#hls.impl<"" _ "">] %10 : !hls.impl, (!hls.space) -> !hls.space
      hls.dse.space_pack %8, %9, %11 : index, index, !hls.space
    }
    %4 = hls.dse.space @task3() : () -> !hls.space {
      %7 = hls.dse.const_param <tile> {value = 0 : index} : index
      %8 = hls.dse.param @tile1 <tile> range() #map2 step 1 {value = 4 : index} : index
      %9 = hls.dse.param @tile2 <tile> range() #map3 step 1 {value = 4 : index} : index
      %10 = hls.dse.space @default(%7, %8, %9) : (index, index, index) -> !hls.space {
      ^bb0(%arg0: index, %arg1: index, %arg2: index):
        %14 = hls.dse.param @parallel0 <parallel> range(%arg0) #map1 step 1 {value = 2 : index} : index
        %15 = hls.dse.param @parallel1 <parallel> range(%arg1) #map1 step 1 {value = 2 : index} : index
        %16 = hls.dse.param @parallel2 <parallel> range(%arg2) #map1 step 1 {value = 2 : index} : index
        hls.dse.space_pack %14, %15, %16 : index, index, index
      }
      %11 = hls.dse.space @vitis_gemm() : () -> !hls.space {
        %14 = hls.dse.const_param <template> {value = 1024 : index} : index
        %15 = hls.dse.const_param <template> {value = 32 : index} : index
        %16 = hls.dse.param @t_ParEntries <template> candidates [2 : index, 4 : index, 8 : index] {value = 4 : index} : index
        hls.dse.space_pack %15, %16, %14 : index, index, index
      }
      %12 = hls.dse.param @candidates <impl> candidates [#hls.impl<"" _ "">, #hls.impl<"vitis" _ "gemm">] {value = #hls.impl<"vitis" _ "gemm">} : !hls.impl
      %13 = hls.dse.space_select %12 [#hls.impl<"" _ "">, #hls.impl<"vitis" _ "gemm">] %10, %11 : !hls.impl, (!hls.space, !hls.space) -> !hls.space
      hls.dse.space_pack %7, %8, %9, %13 : index, index, index, !hls.space
    }
    %5 = hls.dse.space @task4() : () -> !hls.space {
      %7 = hls.dse.const_param <impl> {value = #hls.impl<"" _ "">} : !hls.impl
      %8 = hls.dse.const_param <tile> {value = 0 : index} : index
      %9 = hls.dse.param @tile1 <tile> range() #map3 step 1 {value = 4 : index} : index
      %10 = hls.dse.space @default(%8, %9) : (index, index) -> !hls.space {
      ^bb0(%arg0: index, %arg1: index):
        %12 = hls.dse.param @parallel0 <parallel> range(%arg0) #map1 step 1 {value = 2 : index} : index
        %13 = hls.dse.param @parallel1 <parallel> range(%arg1) #map1 step 1 {value = 2 : index} : index
        hls.dse.space_pack %12, %13 : index, index
      }
      %11 = hls.dse.space_select %7 [#hls.impl<"" _ "">] %10 : !hls.impl, (!hls.space) -> !hls.space
      hls.dse.space_pack %8, %9, %11 : index, index, !hls.space
    }
    %6 = hls.dse.space @task5() : () -> !hls.space {
      %7 = hls.dse.const_param <tile> {value = 0 : index} : index
      %8 = hls.dse.param @tile1 <tile> range() #map3 step 1 {value = 4 : index} : index
      %9 = hls.dse.param @tile2 <tile> range() #map4 step 1 {value = 4 : index} : index
      %10 = hls.dse.space @default(%7, %8, %9) : (index, index, index) -> !hls.space {
      ^bb0(%arg0: index, %arg1: index, %arg2: index):
        %14 = hls.dse.param @parallel0 <parallel> range(%arg0) #map1 step 1 {value = 2 : index} : index
        %15 = hls.dse.param @parallel1 <parallel> range(%arg1) #map1 step 1 {value = 2 : index} : index
        %16 = hls.dse.param @parallel2 <parallel> range(%arg2) #map1 step 1 {value = 2 : index} : index
        hls.dse.space_pack %14, %15, %16 : index, index, index
      }
      %11 = hls.dse.space @vitis_gemm() : () -> !hls.space {
        %14 = hls.dse.const_param <template> {value = 1024 : index} : index
        %15 = hls.dse.const_param <template> {value = 32 : index} : index
        %16 = hls.dse.param @t_ParEntries <template> candidates [2 : index, 4 : index, 8 : index] {value = 4 : index} : index
        hls.dse.space_pack %15, %16, %14 : index, index, index
      }
      %12 = hls.dse.param @candidates <impl> candidates [#hls.impl<"" _ "">, #hls.impl<"vitis" _ "gemm">] {value = #hls.impl<"vitis" _ "gemm">} : !hls.impl
      %13 = hls.dse.space_select %12 [#hls.impl<"" _ "">, #hls.impl<"vitis" _ "gemm">] %10, %11 : !hls.impl, (!hls.space, !hls.space) -> !hls.space
      hls.dse.space_pack %7, %8, %9, %13 : index, index, index, !hls.space
    }
  }
  hls.uip.library @vitis {
    hls.uip.declare @gemm {
      hls.uip.include "Vitis_Libraries/blas/L1/include/hw/xf_blas/gemm.hpp"
      %1 = hls.dse.param @t_DataType <template> candidates [f32] : !hls.type
      %2 = hls.dse.param @t_IndexType <template> candidates [index] : !hls.type
      %3 = hls.dse.param @k_KBufferDim <template> candidates [32 : index] : index
      %4 = hls.dse.param @t_ParEntries <template> candidates [2 : index, 4 : index, 8 : index] : index
      %5 = hls.dse.param @t_MaxSizeC <template> candidates [1024 : index] : index
      %6 = hls.uip.port @p_m <param> type %2 sizes() #map5 : () -> !hls.port
      %7 = hls.uip.port @p_n <param> type %2 sizes() #map5 : () -> !hls.port
      %8 = hls.uip.port @p_k <param> type %2 sizes() #map5 : () -> !hls.port
      %9 = hls.uip.port @p_alpha <param> type %1 sizes() #map5 : () -> !hls.port
      %10 = hls.uip.port @p_beta <param> type %1 sizes() #map5 : () -> !hls.port
      %11 = hls.uip.port @p_a <input> type %1 sizes(%6, %8) #map6 : (!hls.port, !hls.port) -> !hls.port
      %12 = hls.uip.port @p_b <input> type %1 sizes(%8, %7) #map6 : (!hls.port, !hls.port) -> !hls.port
      %13 = hls.uip.port @p_c <input> type %1 sizes(%6, %7) #map6 : (!hls.port, !hls.port) -> !hls.port
      %14 = hls.uip.port @p_r <output> type %1 sizes(%6, %7) #map6 : (!hls.port, !hls.port) -> !hls.port
      hls.uip.semantics(%11, %12, %13) -> (%14) : (!hls.port, !hls.port, !hls.port) -> !hls.port {
      ^bb0(%arg0: tensor<?x?xf32>, %arg1: tensor<?x?xf32>, %arg2: tensor<?x?xf32>, %arg3: tensor<?x?xf32>):
        %15 = linalg.generic {indexing_maps = [#map7, #map8, #map9], iterator_types = ["parallel", "parallel", "reduction"]} ins(%arg0, %arg1 : tensor<?x?xf32>, tensor<?x?xf32>) outs(%arg2 : tensor<?x?xf32>) {
        ^bb0(%in: f32, %in_0: f32, %out: f32):
          %16 = arith.mulf %in, %in_0 : f32
          %17 = arith.addf %out, %16 : f32
          linalg.yield %17 : f32
        } -> tensor<?x?xf32>
        hls.uip.semantics.output %15 -> %arg3 : (tensor<?x?xf32>) -> tensor<?x?xf32>
      }
    }
  }
  ml_program.global private mutable @global_seed(dense<0> : tensor<i64>) : tensor<i64>
  func.func @forward(%arg0: tensor<1x3x32x32xf32>) -> tensor<1x10xf32> {
    %cst = arith.constant 0.000000e+00 : f32
    %cst_0 = arith.constant dense<[… > : tensor<64xf32>
    %cst_1 = arith.constant dense<[… > : tensor<32xf32>
    %cst_2 = arith.constant dense<[-0.0893619582, 0.0512764454, 0.0217502173, -0.103750639, 0.121906452, -0.00669692317, 0.0754107609, -0.131430611, -0.133836761, 0.08827883]> : tensor<10xf32>
    %cst_3 = arith.constant dense<"…"> : tensor<3072x64xf32>
    %cst_4 = arith.constant dense<"…"> : tensor<64x32xf32>
    %cst_5 = arith.constant dense<"…"> : tensor<32x10xf32>
    %1 = hls.fdf.dispatch : tensor<1x10xf32> {
      %2 = hls.fdf.task : tensor<1x3072xf32> {
        %collapsed = tensor.collapse_shape %arg0 [[0], [1, 2, 3]] : tensor<1x3x32x32xf32> into tensor<1x3072xf32>
        hls.fdf.yield %collapsed : tensor<1x3072xf32>
      }
      %3 = hls.fdf.alloc_tensor : () -> tensor<1x64xf32>
      %4 = hls.fdf.alloc_tensor %cst : (f32) -> tensor<1x64xf32>
      %5 = hls.fdf.task space @global::@task5 : tensor<1x64xf32> {
        %15 = linalg.matmul ins(%2, %cst_3 : tensor<1x3072xf32>, tensor<3072x64xf32>) outs(%4 : tensor<1x64xf32>) -> tensor<1x64xf32>
        hls.fdf.yield %15 : tensor<1x64xf32>
      }
      %6 = hls.fdf.task space @global::@task4 : tensor<1x64xf32> {
        %15 = linalg.generic {indexing_maps = [#map10, #map11, #map6], iterator_types = ["parallel", "parallel"]} ins(%5, %cst_0 : tensor<1x64xf32>, tensor<64xf32>) outs(%3 : tensor<1x64xf32>) {
        ^bb0(%in: f32, %in_6: f32, %out: f32):
          %16 = arith.addf %in, %in_6 : f32
          %17 = arith.cmpf ugt, %16, %cst : f32
          %18 = arith.select %17, %16, %cst : f32
          linalg.yield %18 : f32
        } -> tensor<1x64xf32>
        hls.fdf.yield %15 : tensor<1x64xf32>
      }
      %7 = hls.fdf.alloc_tensor : () -> tensor<1x32xf32>
      %8 = hls.fdf.alloc_tensor %cst : (f32) -> tensor<1x32xf32>
      %9 = hls.fdf.task space @global::@task3 : tensor<1x32xf32> {
        %15 = linalg.matmul ins(%6, %cst_4 : tensor<1x64xf32>, tensor<64x32xf32>) outs(%8 : tensor<1x32xf32>) -> tensor<1x32xf32>
        hls.fdf.yield %15 : tensor<1x32xf32>
      }
      %10 = hls.fdf.task space @global::@task2 : tensor<1x32xf32> {
        %15 = linalg.generic {indexing_maps = [#map10, #map11, #map6], iterator_types = ["parallel", "parallel"]} ins(%9, %cst_1 : tensor<1x32xf32>, tensor<32xf32>) outs(%7 : tensor<1x32xf32>) {
        ^bb0(%in: f32, %in_6: f32, %out: f32):
          %16 = arith.addf %in, %in_6 : f32
          %17 = arith.cmpf ugt, %16, %cst : f32
          %18 = arith.select %17, %16, %cst : f32
          linalg.yield %18 : f32
        } -> tensor<1x32xf32>
        hls.fdf.yield %15 : tensor<1x32xf32>
      }
      %11 = hls.fdf.alloc_tensor : () -> tensor<1x10xf32>
      %12 = hls.fdf.alloc_tensor %cst : (f32) -> tensor<1x10xf32>
      %13 = hls.fdf.task space @global::@task1 : tensor<1x10xf32> {
        %15 = linalg.matmul ins(%10, %cst_5 : tensor<1x32xf32>, tensor<32x10xf32>) outs(%12 : tensor<1x10xf32>) -> tensor<1x10xf32>
        hls.fdf.yield %15 : tensor<1x10xf32>
      }
      %14 = hls.fdf.task space @global::@task0 : tensor<1x10xf32> {
        %15 = linalg.generic {indexing_maps = [#map10, #map11, #map6], iterator_types = ["parallel", "parallel"]} ins(%13, %cst_2 : tensor<1x10xf32>, tensor<10xf32>) outs(%11 : tensor<1x10xf32>) {
        ^bb0(%in: f32, %in_6: f32, %out: f32):
          %16 = arith.addf %in, %in_6 : f32
          linalg.yield %16 : f32
        } -> tensor<1x10xf32>
        hls.fdf.yield %15 : tensor<1x10xf32>
      }
      hls.fdf.yield %14 : tensor<1x10xf32>
    }
    return %1 : tensor<1x10xf32>
  }
}

