#map = affine_map<() -> (0, 10)>
#map1 = affine_map<()[s0] -> (0, s0)>
#map2 = affine_map<() -> (0, 32)>
#map3 = affine_map<() -> (0, 64)>
#map4 = affine_map<() -> (0, 3072)>
#map5 = affine_map<() -> ()>
#map6 = affine_map<(d0, d1) -> (d0, d1)>
#map7 = affine_map<(d0, d1, d2) -> (d0, d2)>
#map8 = affine_map<(d0, d1, d2) -> (d2, d1)>
#map9 = affine_map<(d0, d1, d2) -> (d0, d1)>
#map10 = affine_map<(d0, d1) -> (0, d1)>
#map11 = affine_map<(d0, d1) -> (d1)>
module attributes {torch.debug_module_name = "MLP"} {
  %0 = hls.dse.space @global() : () -> !hls.space {
    %1 = hls.dse.space @task0() : () -> !hls.space {
      %7 = hls.dse.const_param <impl> {value = #hls.impl<"" _ "">} : !hls.impl
      %8 = hls.dse.const_param <tile> {value = 0 : index} : index
      %9 = hls.dse.param @tile1 <tile> range() #map step 1 {value = 2 : index} : index
      %10 = hls.dse.space @default(%8, %9) : (index, index) -> !hls.space {
      ^bb0(%arg0: index, %arg1: index):
        %12 = hls.dse.param @parallel0 <parallel> range(%arg0) #map1 step 1 {value = 2 : index} : index
        %13 = hls.dse.param @parallel1 <parallel> range(%arg1) #map1 step 1 {value = 2 : index} : index
        hls.dse.space_pack %12, %13 : index, index
      }
      %11 = hls.dse.space_select %7 [#hls.impl<"" _ "">] %10 : !hls.impl, (!hls.space) -> !hls.space
      hls.dse.space_pack %8, %9, %11 : index, index, !hls.space
    }
    %2 = hls.dse.space @task1() : () -> !hls.space {
      %7 = hls.dse.const_param <tile> {value = 0 : index} : index
      %8 = hls.dse.param @tile1 <tile> range() #map step 1 {value = 2 : index} : index
      %9 = hls.dse.param @tile2 <tile> range() #map2 step 1 {value = 2 : index} : index
      %10 = hls.dse.space @default(%7, %8, %9) : (index, index, index) -> !hls.space {
      ^bb0(%arg0: index, %arg1: index, %arg2: index):
        %14 = hls.dse.param @parallel0 <parallel> range(%arg0) #map1 step 1 {value = 2 : index} : index
        %15 = hls.dse.param @parallel1 <parallel> range(%arg1) #map1 step 1 {value = 2 : index} : index
        %16 = hls.dse.param @parallel2 <parallel> range(%arg2) #map1 step 1 {value = 2 : index} : index
        hls.dse.space_pack %14, %15, %16 : index, index, index
      }
      %11 = hls.dse.space @vitis_gemm() : () -> !hls.space {
        %14 = hls.dse.const_param <template> {value = 1024 : index} : index
        %15 = hls.dse.const_param <template> {value = 32 : index} : index
        %16 = hls.dse.param @t_ParEntries <template> candidates [2 : index, 4 : index, 8 : index] {value = 4 : index} : index
        hls.dse.space_pack %15, %16, %14 : index, index, index
      }
      %12 = hls.dse.param @candidates <impl> candidates [#hls.impl<"" _ "">, #hls.impl<"vitis" _ "gemm">] {value = #hls.impl<"vitis" _ "gemm">} : !hls.impl
      %13 = hls.dse.space_select %12 [#hls.impl<"" _ "">, #hls.impl<"vitis" _ "gemm">] %10, %11 : !hls.impl, (!hls.space, !hls.space) -> !hls.space
      hls.dse.space_pack %7, %8, %9, %13 : index, index, index, !hls.space
    }
    %3 = hls.dse.space @task2() : () -> !hls.space {
      %7 = hls.dse.const_param <impl> {value = #hls.impl<"" _ "">} : !hls.impl
      %8 = hls.dse.const_param <tile> {value = 0 : index} : index
      %9 = hls.dse.param @tile1 <tile> range() #map2 step 1 {value = 2 : index} : index
      %10 = hls.dse.space @default(%8, %9) : (index, index) -> !hls.space {
      ^bb0(%arg0: index, %arg1: index):
        %12 = hls.dse.param @parallel0 <parallel> range(%arg0) #map1 step 1 {value = 2 : index} : index
        %13 = hls.dse.param @parallel1 <parallel> range(%arg1) #map1 step 1 {value = 2 : index} : index
        hls.dse.space_pack %12, %13 : index, index
      }
      %11 = hls.dse.space_select %7 [#hls.impl<"" _ "">] %10 : !hls.impl, (!hls.space) -> !hls.space
      hls.dse.space_pack %8, %9, %11 : index, index, !hls.space
    }
    %4 = hls.dse.space @task3() : () -> !hls.space {
      %7 = hls.dse.const_param <tile> {value = 0 : index} : index
      %8 = hls.dse.param @tile1 <tile> range() #map2 step 1 {value = 2 : index} : index
      %9 = hls.dse.param @tile2 <tile> range() #map3 step 1 {value = 2 : index} : index
      %10 = hls.dse.space @default(%7, %8, %9) : (index, index, index) -> !hls.space {
      ^bb0(%arg0: index, %arg1: index, %arg2: index):
        %14 = hls.dse.param @parallel0 <parallel> range(%arg0) #map1 step 1 {value = 2 : index} : index
        %15 = hls.dse.param @parallel1 <parallel> range(%arg1) #map1 step 1 {value = 2 : index} : index
        %16 = hls.dse.param @parallel2 <parallel> range(%arg2) #map1 step 1 {value = 2 : index} : index
        hls.dse.space_pack %14, %15, %16 : index, index, index
      }
      %11 = hls.dse.space @vitis_gemm() : () -> !hls.space {
        %14 = hls.dse.const_param <template> {value = 1024 : index} : index
        %15 = hls.dse.const_param <template> {value = 32 : index} : index
        %16 = hls.dse.param @t_ParEntries <template> candidates [2 : index, 4 : index, 8 : index] {value = 4 : index} : index
        hls.dse.space_pack %15, %16, %14 : index, index, index
      }
      %12 = hls.dse.param @candidates <impl> candidates [#hls.impl<"" _ "">, #hls.impl<"vitis" _ "gemm">] {value = #hls.impl<"vitis" _ "gemm">} : !hls.impl
      %13 = hls.dse.space_select %12 [#hls.impl<"" _ "">, #hls.impl<"vitis" _ "gemm">] %10, %11 : !hls.impl, (!hls.space, !hls.space) -> !hls.space
      hls.dse.space_pack %7, %8, %9, %13 : index, index, index, !hls.space
    }
    %5 = hls.dse.space @task4() : () -> !hls.space {
      %7 = hls.dse.const_param <impl> {value = #hls.impl<"" _ "">} : !hls.impl
      %8 = hls.dse.const_param <tile> {value = 0 : index} : index
      %9 = hls.dse.param @tile1 <tile> range() #map3 step 1 {value = 2 : index} : index
      %10 = hls.dse.space @default(%8, %9) : (index, index) -> !hls.space {
      ^bb0(%arg0: index, %arg1: index):
        %12 = hls.dse.param @parallel0 <parallel> range(%arg0) #map1 step 1 {value = 2 : index} : index
        %13 = hls.dse.param @parallel1 <parallel> range(%arg1) #map1 step 1 {value = 2 : index} : index
        hls.dse.space_pack %12, %13 : index, index
      }
      %11 = hls.dse.space_select %7 [#hls.impl<"" _ "">] %10 : !hls.impl, (!hls.space) -> !hls.space
      hls.dse.space_pack %8, %9, %11 : index, index, !hls.space
    }
    %6 = hls.dse.space @task5() : () -> !hls.space {
      %7 = hls.dse.const_param <tile> {value = 0 : index} : index
      %8 = hls.dse.param @tile1 <tile> range() #map3 step 1 {value = 2 : index} : index
      %9 = hls.dse.param @tile2 <tile> range() #map4 step 1 {value = 2 : index} : index
      %10 = hls.dse.space @default(%7, %8, %9) : (index, index, index) -> !hls.space {
      ^bb0(%arg0: index, %arg1: index, %arg2: index):
        %14 = hls.dse.param @parallel0 <parallel> range(%arg0) #map1 step 1 {value = 2 : index} : index
        %15 = hls.dse.param @parallel1 <parallel> range(%arg1) #map1 step 1 {value = 2 : index} : index
        %16 = hls.dse.param @parallel2 <parallel> range(%arg2) #map1 step 1 {value = 2 : index} : index
        hls.dse.space_pack %14, %15, %16 : index, index, index
      }
      %11 = hls.dse.space @vitis_gemm() : () -> !hls.space {
        %14 = hls.dse.const_param <template> {value = 1024 : index} : index
        %15 = hls.dse.const_param <template> {value = 32 : index} : index
        %16 = hls.dse.param @t_ParEntries <template> candidates [2 : index, 4 : index, 8 : index] {value = 4 : index} : index
        hls.dse.space_pack %15, %16, %14 : index, index, index
      }
      %12 = hls.dse.param @candidates <impl> candidates [#hls.impl<"" _ "">, #hls.impl<"vitis" _ "gemm">] {value = #hls.impl<"vitis" _ "gemm">} : !hls.impl
      %13 = hls.dse.space_select %12 [#hls.impl<"" _ "">, #hls.impl<"vitis" _ "gemm">] %10, %11 : !hls.impl, (!hls.space, !hls.space) -> !hls.space
      hls.dse.space_pack %7, %8, %9, %13 : index, index, index, !hls.space
    }
  }
  hls.uip.library @vitis {
    hls.uip.declare @gemm {
      hls.uip.include "Vitis_Libraries/blas/L1/include/hw/xf_blas/gemm.hpp"
      %1 = hls.dse.param @t_DataType <template> candidates [f32] : !hls.type
      %2 = hls.dse.param @t_IndexType <template> candidates [index] : !hls.type
      %3 = hls.dse.param @k_KBufferDim <template> candidates [32 : index] : index
      %4 = hls.dse.param @t_ParEntries <template> candidates [2 : index, 4 : index, 8 : index] : index
      %5 = hls.dse.param @t_MaxSizeC <template> candidates [1024 : index] : index
      %6 = hls.uip.port @p_m <param> type %2 sizes() #map5 : () -> !hls.port
      %7 = hls.uip.port @p_n <param> type %2 sizes() #map5 : () -> !hls.port
      %8 = hls.uip.port @p_k <param> type %2 sizes() #map5 : () -> !hls.port
      %9 = hls.uip.port @p_alpha <param> type %1 sizes() #map5 : () -> !hls.port
      %10 = hls.uip.port @p_beta <param> type %1 sizes() #map5 : () -> !hls.port
      %11 = hls.uip.port @p_a <input> type %1 sizes(%6, %8) #map6 : (!hls.port, !hls.port) -> !hls.port
      %12 = hls.uip.port @p_b <input> type %1 sizes(%8, %7) #map6 : (!hls.port, !hls.port) -> !hls.port
      %13 = hls.uip.port @p_c <input> type %1 sizes(%6, %7) #map6 : (!hls.port, !hls.port) -> !hls.port
      %14 = hls.uip.port @p_r <output> type %1 sizes(%6, %7) #map6 : (!hls.port, !hls.port) -> !hls.port
      hls.uip.semantics(%11, %12, %13) -> (%14) : (!hls.port, !hls.port, !hls.port) -> !hls.port {
      ^bb0(%arg0: tensor<?x?xf32>, %arg1: tensor<?x?xf32>, %arg2: tensor<?x?xf32>, %arg3: tensor<?x?xf32>):
        %15 = linalg.generic {indexing_maps = [#map7, #map8, #map9], iterator_types = ["parallel", "parallel", "reduction"]} ins(%arg0, %arg1 : tensor<?x?xf32>, tensor<?x?xf32>) outs(%arg2 : tensor<?x?xf32>) {
        ^bb0(%in: f32, %in_0: f32, %out: f32):
          %16 = arith.mulf %in, %in_0 : f32
          %17 = arith.addf %out, %16 : f32
          linalg.yield %17 : f32
        } -> tensor<?x?xf32>
        hls.uip.semantics.output %15 -> %arg3 : (tensor<?x?xf32>) -> tensor<?x?xf32>
      }
    }
  }
  ml_program.global private mutable @global_seed(dense<0> : tensor<i64>) : tensor<i64>
  func.func @forward(%arg0: tensor<1x3x32x32xf32>) -> tensor<1x10xf32> {
    %c3072 = arith.constant 3072 : index
    %c64 = arith.constant 64 : index
    %c32 = arith.constant 32 : index
    %c0 = arith.constant 0 : index
    %c10 = arith.constant 10 : index
    %c2 = arith.constant 2 : index
    %cst = arith.constant 0.000000e+00 : f32
    %cst_0 = arith.constant dense<[… > : tensor<64xf32>
    %cst_1 = arith.constant dense<[… > : tensor<32xf32>
    %cst_2 = arith.constant dense<[-0.10700956, -0.152937859, -0.106017426, -0.0105353426, 0.0749071315, 0.123424262, -0.113984339, -0.0589130968, 0.0951084718, -0.00795831531]> : tensor<10xf32>
    %cst_3 = arith.constant dense<"…"> : tensor<3072x64xf32>
    %cst_4 = arith.constant dense<"…"> : tensor<64x32xf32>
    %cst_5 = arith.constant dense<"…"> : tensor<32x10xf32>
    %1 = hls.fdf.dispatch : tensor<1x10xf32> {
      %2 = hls.fdf.task : tensor<1x3072xf32> {
        %collapsed = tensor.collapse_shape %arg0 [[0], [1, 2, 3]] : tensor<1x3x32x32xf32> into tensor<1x3072xf32>
        hls.fdf.yield %collapsed : tensor<1x3072xf32>
      }
      %3 = hls.fdf.alloc_tensor : () -> tensor<1x64xf32>
      %4 = hls.fdf.alloc_tensor %cst : (f32) -> tensor<1x64xf32>
      %5 = hls.fdf.task : tensor<1x64xf32> {
        %15 = scf.for %arg1 = %c0 to %c64 step %c2 iter_args(%arg2 = %4) -> (tensor<1x64xf32>) {
          %16 = scf.for %arg3 = %c0 to %c3072 step %c2 iter_args(%arg4 = %arg2) -> (tensor<1x64xf32>) {
            %extracted_slice = tensor.extract_slice %2[0, %arg3] [1, 2] [1, 1] : tensor<1x3072xf32> to tensor<1x2xf32>
            %extracted_slice_6 = tensor.extract_slice %cst_3[%arg3, %arg1] [2, 2] [1, 1] : tensor<3072x64xf32> to tensor<2x2xf32>
            %extracted_slice_7 = tensor.extract_slice %arg4[0, %arg1] [1, 2] [1, 1] : tensor<1x64xf32> to tensor<1x2xf32>
            %17 = hls.uip.instance @vitis::@gemm(%extracted_slice, %extracted_slice_6) -> (%extracted_slice_7) : (tensor<1x2xf32>, tensor<2x2xf32>) -> tensor<1x2xf32> -> tensor<1x2xf32>
            %inserted_slice = tensor.insert_slice %17 into %arg4[0, %arg1] [1, 2] [1, 1] : tensor<1x2xf32> into tensor<1x64xf32>
            scf.yield %inserted_slice : tensor<1x64xf32>
          }
          scf.yield %16 : tensor<1x64xf32>
        }
        hls.fdf.yield %15 : tensor<1x64xf32>
      }
      %6 = hls.fdf.task : tensor<1x64xf32> {
        %15 = scf.for %arg1 = %c0 to %c64 step %c2 iter_args(%arg2 = %3) -> (tensor<1x64xf32>) {
          %extracted_slice = tensor.extract_slice %5[0, %arg1] [1, 2] [1, 1] : tensor<1x64xf32> to tensor<1x2xf32>
          %extracted_slice_6 = tensor.extract_slice %cst_0[%arg1] [2] [1] : tensor<64xf32> to tensor<2xf32>
          %extracted_slice_7 = tensor.extract_slice %arg2[0, %arg1] [1, 2] [1, 1] : tensor<1x64xf32> to tensor<1x2xf32>
          %16 = linalg.generic {indexing_maps = [#map10, #map11, #map6], iterator_types = ["parallel", "parallel"]} ins(%extracted_slice, %extracted_slice_6 : tensor<1x2xf32>, tensor<2xf32>) outs(%extracted_slice_7 : tensor<1x2xf32>) {
          ^bb0(%in: f32, %in_8: f32, %out: f32):
            %17 = arith.addf %in, %in_8 : f32
            %18 = arith.cmpf ugt, %17, %cst : f32
            %19 = arith.select %18, %17, %cst : f32
            linalg.yield %19 : f32
          } -> tensor<1x2xf32>
          %inserted_slice = tensor.insert_slice %16 into %arg2[0, %arg1] [1, 2] [1, 1] : tensor<1x2xf32> into tensor<1x64xf32>
          scf.yield %inserted_slice : tensor<1x64xf32>
        }
        hls.fdf.yield %15 : tensor<1x64xf32>
      }
      %7 = hls.fdf.alloc_tensor : () -> tensor<1x32xf32>
      %8 = hls.fdf.alloc_tensor %cst : (f32) -> tensor<1x32xf32>
      %9 = hls.fdf.task : tensor<1x32xf32> {
        %15 = scf.for %arg1 = %c0 to %c32 step %c2 iter_args(%arg2 = %8) -> (tensor<1x32xf32>) {
          %16 = scf.for %arg3 = %c0 to %c64 step %c2 iter_args(%arg4 = %arg2) -> (tensor<1x32xf32>) {
            %extracted_slice = tensor.extract_slice %6[0, %arg3] [1, 2] [1, 1] : tensor<1x64xf32> to tensor<1x2xf32>
            %extracted_slice_6 = tensor.extract_slice %cst_4[%arg3, %arg1] [2, 2] [1, 1] : tensor<64x32xf32> to tensor<2x2xf32>
            %extracted_slice_7 = tensor.extract_slice %arg4[0, %arg1] [1, 2] [1, 1] : tensor<1x32xf32> to tensor<1x2xf32>
            %17 = hls.uip.instance @vitis::@gemm(%extracted_slice, %extracted_slice_6) -> (%extracted_slice_7) : (tensor<1x2xf32>, tensor<2x2xf32>) -> tensor<1x2xf32> -> tensor<1x2xf32>
            %inserted_slice = tensor.insert_slice %17 into %arg4[0, %arg1] [1, 2] [1, 1] : tensor<1x2xf32> into tensor<1x32xf32>
            scf.yield %inserted_slice : tensor<1x32xf32>
          }
          scf.yield %16 : tensor<1x32xf32>
        }
        hls.fdf.yield %15 : tensor<1x32xf32>
      }
      %10 = hls.fdf.task : tensor<1x32xf32> {
        %15 = scf.for %arg1 = %c0 to %c32 step %c2 iter_args(%arg2 = %7) -> (tensor<1x32xf32>) {
          %extracted_slice = tensor.extract_slice %9[0, %arg1] [1, 2] [1, 1] : tensor<1x32xf32> to tensor<1x2xf32>
          %extracted_slice_6 = tensor.extract_slice %cst_1[%arg1] [2] [1] : tensor<32xf32> to tensor<2xf32>
          %extracted_slice_7 = tensor.extract_slice %arg2[0, %arg1] [1, 2] [1, 1] : tensor<1x32xf32> to tensor<1x2xf32>
          %16 = linalg.generic {indexing_maps = [#map10, #map11, #map6], iterator_types = ["parallel", "parallel"]} ins(%extracted_slice, %extracted_slice_6 : tensor<1x2xf32>, tensor<2xf32>) outs(%extracted_slice_7 : tensor<1x2xf32>) {
          ^bb0(%in: f32, %in_8: f32, %out: f32):
            %17 = arith.addf %in, %in_8 : f32
            %18 = arith.cmpf ugt, %17, %cst : f32
            %19 = arith.select %18, %17, %cst : f32
            linalg.yield %19 : f32
          } -> tensor<1x2xf32>
          %inserted_slice = tensor.insert_slice %16 into %arg2[0, %arg1] [1, 2] [1, 1] : tensor<1x2xf32> into tensor<1x32xf32>
          scf.yield %inserted_slice : tensor<1x32xf32>
        }
        hls.fdf.yield %15 : tensor<1x32xf32>
      }
      %11 = hls.fdf.alloc_tensor : () -> tensor<1x10xf32>
      %12 = hls.fdf.alloc_tensor %cst : (f32) -> tensor<1x10xf32>
      %13 = hls.fdf.task : tensor<1x10xf32> {
        %15 = scf.for %arg1 = %c0 to %c10 step %c2 iter_args(%arg2 = %12) -> (tensor<1x10xf32>) {
          %16 = scf.for %arg3 = %c0 to %c32 step %c2 iter_args(%arg4 = %arg2) -> (tensor<1x10xf32>) {
            %extracted_slice = tensor.extract_slice %10[0, %arg3] [1, 2] [1, 1] : tensor<1x32xf32> to tensor<1x2xf32>
            %extracted_slice_6 = tensor.extract_slice %cst_5[%arg3, %arg1] [2, 2] [1, 1] : tensor<32x10xf32> to tensor<2x2xf32>
            %extracted_slice_7 = tensor.extract_slice %arg4[0, %arg1] [1, 2] [1, 1] : tensor<1x10xf32> to tensor<1x2xf32>
            %17 = hls.uip.instance @vitis::@gemm(%extracted_slice, %extracted_slice_6) -> (%extracted_slice_7) : (tensor<1x2xf32>, tensor<2x2xf32>) -> tensor<1x2xf32> -> tensor<1x2xf32>
            %inserted_slice = tensor.insert_slice %17 into %arg4[0, %arg1] [1, 2] [1, 1] : tensor<1x2xf32> into tensor<1x10xf32>
            scf.yield %inserted_slice : tensor<1x10xf32>
          }
          scf.yield %16 : tensor<1x10xf32>
        }
        hls.fdf.yield %15 : tensor<1x10xf32>
      }
      %14 = hls.fdf.task : tensor<1x10xf32> {
        %15 = scf.for %arg1 = %c0 to %c10 step %c2 iter_args(%arg2 = %11) -> (tensor<1x10xf32>) {
          %extracted_slice = tensor.extract_slice %13[0, %arg1] [1, 2] [1, 1] : tensor<1x10xf32> to tensor<1x2xf32>
          %extracted_slice_6 = tensor.extract_slice %cst_2[%arg1] [2] [1] : tensor<10xf32> to tensor<2xf32>
          %extracted_slice_7 = tensor.extract_slice %arg2[0, %arg1] [1, 2] [1, 1] : tensor<1x10xf32> to tensor<1x2xf32>
          %16 = linalg.generic {indexing_maps = [#map10, #map11, #map6], iterator_types = ["parallel", "parallel"]} ins(%extracted_slice, %extracted_slice_6 : tensor<1x2xf32>, tensor<2xf32>) outs(%extracted_slice_7 : tensor<1x2xf32>) {
          ^bb0(%in: f32, %in_8: f32, %out: f32):
            %17 = arith.addf %in, %in_8 : f32
            linalg.yield %17 : f32
          } -> tensor<1x2xf32>
          %inserted_slice = tensor.insert_slice %16 into %arg2[0, %arg1] [1, 2] [1, 1] : tensor<1x2xf32> into tensor<1x10xf32>
          scf.yield %inserted_slice : tensor<1x10xf32>
        }
        hls.fdf.yield %15 : tensor<1x10xf32>
      }
      hls.fdf.yield %14 : tensor<1x10xf32>
    }
    return %1 : tensor<1x10xf32>
  }
}

