#map = affine_map<() -> ()>
#map1 = affine_map<(d0, d1) -> (d0, d1)>
#map2 = affine_map<(d0, d1) -> (d1, d0)>
#map3 = affine_map<(d0, d1, d2) -> (d0, d2)>
#map4 = affine_map<(d0, d1, d2) -> (d2, d1)>
#map5 = affine_map<(d0, d1, d2) -> (d0, d1)>
#map6 = affine_map<(d0, d1) -> (0, d1)>
#map7 = affine_map<(d0, d1) -> (d1)>
"builtin.module"() ({
  "hls.uip.library"() ({
    "hls.uip.include"() {path = "Vitis_Libraries/blas/L1/include/hw/xf_blas/gemm.hpp"} : () -> ()
    "hls.uip.declare"() ({
      %0 = "hls.dse.param"() {candidates = [f32], kind = #hls.param<template>, sym_name = "t_DataType"} : () -> !hls.type
      %1 = "hls.dse.param"() {candidates = [index], kind = #hls.param<template>, sym_name = "t_IndexType"} : () -> !hls.type
      %2 = "hls.dse.param"() {candidates = [32 : index], kind = #hls.param<template>, sym_name = "k_KBufferDim"} : () -> index
      %3 = "hls.dse.param"() {candidates = [2 : index], kind = #hls.param<template>, sym_name = "t_ParEntries"} : () -> index
      %4 = "hls.dse.param"() {candidates = [1024 : index], kind = #hls.param<template>, sym_name = "t_MaxSizeC"} : () -> index
      %5 = "hls.uip.port"(%1) {kind = #hls.port<param>, layout = #map, sym_name = "p_m"} : (!hls.type) -> !hls.port
      %6 = "hls.uip.port"(%1) {kind = #hls.port<param>, layout = #map, sym_name = "p_n"} : (!hls.type) -> !hls.port
      %7 = "hls.uip.port"(%1) {kind = #hls.port<param>, layout = #map, sym_name = "p_k"} : (!hls.type) -> !hls.port
      %8 = "hls.uip.port"(%1) {kind = #hls.port<param>, layout = #map, sym_name = "alpha"} : (!hls.type) -> !hls.port
      %9 = "hls.uip.port"(%1) {kind = #hls.port<param>, layout = #map, sym_name = "beta"} : (!hls.type) -> !hls.port
      %10 = "hls.uip.port"(%1, %5, %7) {kind = #hls.port<input>, layout = #map1, sym_name = "p_a"} : (!hls.type, !hls.port, !hls.port) -> !hls.port
      %11 = "hls.uip.port"(%1, %7, %6) {kind = #hls.port<input>, layout = #map1, sym_name = "p_b"} : (!hls.type, !hls.port, !hls.port) -> !hls.port
      %12 = "hls.uip.port"(%1, %5, %6) {kind = #hls.port<input>, layout = #map1, sym_name = "p_c"} : (!hls.type, !hls.port, !hls.port) -> !hls.port
      %13 = "hls.uip.port"(%1, %5, %6) {kind = #hls.port<output>, layout = #map1, sym_name = "p_r"} : (!hls.type, !hls.port, !hls.port) -> !hls.port
      "hls.uip.semantics"(%10, %11, %12, %13) ({
      ^bb0(%arg0: tensor<?x?xf32>, %arg1: tensor<?x?xf32>, %arg2: tensor<?x?xf32>, %arg3: tensor<?x?xf32>):
      }) {operand_segment_sizes = array<i32: 3, 1, 0>} : (!hls.port, !hls.port, !hls.port, !hls.port) -> ()
    }) {sym_name = "gemm"} : () -> ()
  }) {sym_name = "vitis"} : () -> ()
  "ml_program.global"() {is_mutable, sym_name = "global_seed", sym_visibility = "private", type = tensor<i64>, value = dense<0> : tensor<i64>} : () -> ()
  "func.func"() ({
  ^bb0(%arg0: tensor<1x3x32x32xf32>):
    %0 = "arith.constant"() {value = dense<[-0.174950764, 0.0935300738, 0.0150577202, 0.160730228, -0.168284401, -0.1167183, 0.135652244, 0.0525459908, -0.0142476782, -0.142069101]> : tensor<10xf32>} : () -> tensor<10xf32>
    %1 = "arith.constant"() {value = dense<"…"> : tensor<10x32xf32>} : () -> tensor<10x32xf32>
    %2 = "arith.constant"() {value = dense<[… > : tensor<32xf32>} : () -> tensor<32xf32>
    %3 = "arith.constant"() {value = dense<"…"> : tensor<32x64xf32>} : () -> tensor<32x64xf32>
    %4 = "arith.constant"() {value = dense<[… > : tensor<64xf32>} : () -> tensor<64xf32>
    %5 = "arith.constant"() {value = dense<"…"> : tensor<64x3072xf32>} : () -> tensor<64x3072xf32>
    %6 = "arith.constant"() {value = 0.000000e+00 : f32} : () -> f32
    %7 = "tensor.collapse_shape"(%arg0) {reassociation = [[0], [1, 2, 3]]} : (tensor<1x3x32x32xf32>) -> tensor<1x3072xf32>
    %8 = "tensor.empty"() : () -> tensor<3072x64xf32>
    %9 = "linalg.generic"(%5, %8) ({
    ^bb0(%arg1: f32, %arg2: f32):
      "linalg.yield"(%arg1) : (f32) -> ()
    }) {indexing_maps = [#map1, #map2], iterator_types = [#linalg.iterator_type<parallel>, #linalg.iterator_type<parallel>], operand_segment_sizes = array<i32: 1, 1>} : (tensor<64x3072xf32>, tensor<3072x64xf32>) -> tensor<3072x64xf32>
    %10 = "tensor.empty"() : () -> tensor<1x64xf32>
    %11 = "linalg.fill"(%6, %10) ({
    ^bb0(%arg1: f32, %arg2: f32):
      "linalg.yield"(%arg1) : (f32) -> ()
    }) {operand_segment_sizes = array<i32: 1, 1>} : (f32, tensor<1x64xf32>) -> tensor<1x64xf32>
    %12 = "linalg.matmul"(%7, %9, %11) ({
    ^bb0(%arg1: f32, %arg2: f32, %arg3: f32):
      %28 = "arith.mulf"(%arg1, %arg2) {fastmath = #arith.fastmath<none>} : (f32, f32) -> f32
      %29 = "arith.addf"(%arg3, %28) {fastmath = #arith.fastmath<none>} : (f32, f32) -> f32
      "linalg.yield"(%29) : (f32) -> ()
    }) {linalg.memoized_indexing_maps = [#map3, #map4, #map5], operand_segment_sizes = array<i32: 2, 1>} : (tensor<1x3072xf32>, tensor<3072x64xf32>, tensor<1x64xf32>) -> tensor<1x64xf32>
    %13 = "linalg.generic"(%12, %4, %10) ({
    ^bb0(%arg1: f32, %arg2: f32, %arg3: f32):
      %28 = "arith.addf"(%arg1, %arg2) {fastmath = #arith.fastmath<none>} : (f32, f32) -> f32
      "linalg.yield"(%28) : (f32) -> ()
    }) {indexing_maps = [#map6, #map7, #map1], iterator_types = [#linalg.iterator_type<parallel>, #linalg.iterator_type<parallel>], operand_segment_sizes = array<i32: 2, 1>} : (tensor<1x64xf32>, tensor<64xf32>, tensor<1x64xf32>) -> tensor<1x64xf32>
    %14 = "linalg.generic"(%13, %10) ({
    ^bb0(%arg1: f32, %arg2: f32):
      %28 = "arith.cmpf"(%arg1, %6) {predicate = 9 : i64} : (f32, f32) -> i1
      %29 = "arith.select"(%28, %arg1, %6) : (i1, f32, f32) -> f32
      "linalg.yield"(%29) : (f32) -> ()
    }) {indexing_maps = [#map6, #map1], iterator_types = [#linalg.iterator_type<parallel>, #linalg.iterator_type<parallel>], operand_segment_sizes = array<i32: 1, 1>} : (tensor<1x64xf32>, tensor<1x64xf32>) -> tensor<1x64xf32>
    %15 = "tensor.empty"() : () -> tensor<64x32xf32>
    %16 = "linalg.generic"(%3, %15) ({
    ^bb0(%arg1: f32, %arg2: f32):
      "linalg.yield"(%arg1) : (f32) -> ()
    }) {indexing_maps = [#map1, #map2], iterator_types = [#linalg.iterator_type<parallel>, #linalg.iterator_type<parallel>], operand_segment_sizes = array<i32: 1, 1>} : (tensor<32x64xf32>, tensor<64x32xf32>) -> tensor<64x32xf32>
    %17 = "tensor.empty"() : () -> tensor<1x32xf32>
    %18 = "linalg.fill"(%6, %17) ({
    ^bb0(%arg1: f32, %arg2: f32):
      "linalg.yield"(%arg1) : (f32) -> ()
    }) {operand_segment_sizes = array<i32: 1, 1>} : (f32, tensor<1x32xf32>) -> tensor<1x32xf32>
    %19 = "linalg.matmul"(%14, %16, %18) ({
    ^bb0(%arg1: f32, %arg2: f32, %arg3: f32):
      %28 = "arith.mulf"(%arg1, %arg2) {fastmath = #arith.fastmath<none>} : (f32, f32) -> f32
      %29 = "arith.addf"(%arg3, %28) {fastmath = #arith.fastmath<none>} : (f32, f32) -> f32
      "linalg.yield"(%29) : (f32) -> ()
    }) {linalg.memoized_indexing_maps = [#map3, #map4, #map5], operand_segment_sizes = array<i32: 2, 1>} : (tensor<1x64xf32>, tensor<64x32xf32>, tensor<1x32xf32>) -> tensor<1x32xf32>
    %20 = "linalg.generic"(%19, %2, %17) ({
    ^bb0(%arg1: f32, %arg2: f32, %arg3: f32):
      %28 = "arith.addf"(%arg1, %arg2) {fastmath = #arith.fastmath<none>} : (f32, f32) -> f32
      "linalg.yield"(%28) : (f32) -> ()
    }) {indexing_maps = [#map6, #map7, #map1], iterator_types = [#linalg.iterator_type<parallel>, #linalg.iterator_type<parallel>], operand_segment_sizes = array<i32: 2, 1>} : (tensor<1x32xf32>, tensor<32xf32>, tensor<1x32xf32>) -> tensor<1x32xf32>
    %21 = "linalg.generic"(%20, %17) ({
    ^bb0(%arg1: f32, %arg2: f32):
      %28 = "arith.cmpf"(%arg1, %6) {predicate = 9 : i64} : (f32, f32) -> i1
      %29 = "arith.select"(%28, %arg1, %6) : (i1, f32, f32) -> f32
      "linalg.yield"(%29) : (f32) -> ()
    }) {indexing_maps = [#map6, #map1], iterator_types = [#linalg.iterator_type<parallel>, #linalg.iterator_type<parallel>], operand_segment_sizes = array<i32: 1, 1>} : (tensor<1x32xf32>, tensor<1x32xf32>) -> tensor<1x32xf32>
    %22 = "tensor.empty"() : () -> tensor<32x10xf32>
    %23 = "linalg.generic"(%1, %22) ({
    ^bb0(%arg1: f32, %arg2: f32):
      "linalg.yield"(%arg1) : (f32) -> ()
    }) {indexing_maps = [#map1, #map2], iterator_types = [#linalg.iterator_type<parallel>, #linalg.iterator_type<parallel>], operand_segment_sizes = array<i32: 1, 1>} : (tensor<10x32xf32>, tensor<32x10xf32>) -> tensor<32x10xf32>
    %24 = "tensor.empty"() : () -> tensor<1x10xf32>
    %25 = "linalg.fill"(%6, %24) ({
    ^bb0(%arg1: f32, %arg2: f32):
      "linalg.yield"(%arg1) : (f32) -> ()
    }) {operand_segment_sizes = array<i32: 1, 1>} : (f32, tensor<1x10xf32>) -> tensor<1x10xf32>
    %26 = "linalg.matmul"(%21, %23, %25) ({
    ^bb0(%arg1: f32, %arg2: f32, %arg3: f32):
      %28 = "arith.mulf"(%arg1, %arg2) {fastmath = #arith.fastmath<none>} : (f32, f32) -> f32
      %29 = "arith.addf"(%arg3, %28) {fastmath = #arith.fastmath<none>} : (f32, f32) -> f32
      "linalg.yield"(%29) : (f32) -> ()
    }) {linalg.memoized_indexing_maps = [#map3, #map4, #map5], operand_segment_sizes = array<i32: 2, 1>} : (tensor<1x32xf32>, tensor<32x10xf32>, tensor<1x10xf32>) -> tensor<1x10xf32>
    %27 = "linalg.generic"(%26, %0, %24) ({
    ^bb0(%arg1: f32, %arg2: f32, %arg3: f32):
      %28 = "arith.addf"(%arg1, %arg2) {fastmath = #arith.fastmath<none>} : (f32, f32) -> f32
      "linalg.yield"(%28) : (f32) -> ()
    }) {indexing_maps = [#map6, #map7, #map1], iterator_types = [#linalg.iterator_type<parallel>, #linalg.iterator_type<parallel>], operand_segment_sizes = array<i32: 2, 1>} : (tensor<1x10xf32>, tensor<10xf32>, tensor<1x10xf32>) -> tensor<1x10xf32>
    "func.return"(%27) : (tensor<1x10xf32>) -> ()
  }) {function_type = (tensor<1x3x32x32xf32>) -> tensor<1x10xf32>, sym_name = "forward"} : () -> ()
}) {torch.debug_module_name = "MLP"} : () -> ()
 <scalehls._mlir_libs._site_initialize.<locals>.Context object at 0x7f0ac5acf5e0> loc(unknown) <scalehls._mlir_libs._mlir.ir.InsertionPoint object at 0x7f0ac6643f70> "hls.uip.semantics"(%10, %11, %12, %13) ({
^bb0(%arg0: tensor<?x?xf32>, %arg1: tensor<?x?xf32>, %arg2: tensor<?x?xf32>, %arg3: tensor<?x?xf32>):
}) {operand_segment_sizes = array<i32: 3, 1, 0>} : (!hls.port, !hls.port, !hls.port, !hls.port) -> () ^bb0(%arg0: tensor<?x?xf32>, %arg1: tensor<?x?xf32>, %arg2: tensor<?x?xf32>, %arg3: tensor<?x?xf32>):
 <scalehls._mlir_libs._mlir.ir.BlockArgumentList object at 0x7f0abf94a630>
