#map = affine_map<() -> (0, 10)>
#map1 = affine_map<()[s0] -> (0, s0)>
#map2 = affine_map<() -> (0, 32)>
#map3 = affine_map<() -> (0, 64)>
#map4 = affine_map<() -> (0, 3072)>
#map5 = affine_map<() -> ()>
#map6 = affine_map<(d0, d1) -> (d0, d1)>
#map7 = affine_map<(d0, d1, d2) -> (d2, d1)>
#map8 = affine_map<(d0, d1, d2) -> (d0, d2)>
#map9 = affine_map<(d0, d1, d2) -> (d0, d1)>
module attributes {torch.debug_module_name = "MLP"} {
  %0 = hls.dse.space @global() : () -> !hls.space {
    %1 = hls.dse.space @task0() : () -> !hls.space {
      %7 = hls.dse.const_param <impl> {value = #hls.impl<"" _ "">} : !hls.impl
      %8 = hls.dse.const_param <tile> {value = 0 : index} : index
      %9 = hls.dse.param @tile1 <tile> range() #map step 1 {value = 0 : index} : index
      %10 = hls.dse.space @default(%8, %9) : (index, index) -> !hls.space {
      ^bb0(%arg0: index, %arg1: index):
        %12 = hls.dse.param @parallel0 <parallel> range(%arg0) #map1 step 1 {value = 2 : index} : index
        %13 = hls.dse.param @parallel1 <parallel> range(%arg1) #map1 step 1 {value = 2 : index} : index
        hls.dse.space_pack %12, %13 : index, index
      }
      %11 = hls.dse.space_select %7 [#hls.impl<"" _ "">] %10 : !hls.impl, (!hls.space) -> !hls.space
      hls.dse.space_pack %8, %9, %11 : index, index, !hls.space
    }
    %2 = hls.dse.space @task1() : () -> !hls.space {
      %7 = hls.dse.const_param <tile> {value = 0 : index} : index
      %8 = hls.dse.param @tile1 <tile> range() #map step 1 {value = 0 : index} : index
      %9 = hls.dse.param @tile2 <tile> range() #map2 step 1 {value = 0 : index} : index
      %10 = hls.dse.space @default(%7, %8, %9) : (index, index, index) -> !hls.space {
      ^bb0(%arg0: index, %arg1: index, %arg2: index):
        %14 = hls.dse.param @parallel0 <parallel> range(%arg0) #map1 step 1 {value = 2 : index} : index
        %15 = hls.dse.param @parallel1 <parallel> range(%arg1) #map1 step 1 {value = 2 : index} : index
        %16 = hls.dse.param @parallel2 <parallel> range(%arg2) #map1 step 1 {value = 2 : index} : index
        hls.dse.space_pack %14, %15, %16 : index, index, index
      }
      %11 = hls.dse.space @vitis_gemm() : () -> !hls.space {
        %14 = hls.dse.const_param <template> {value = 1024 : index} : index
        %15 = hls.dse.const_param <template> {value = 32 : index} : index
        %16 = hls.dse.param @t_ParEntries <template> candidates [2 : index, 4 : index, 8 : index] {value = 4 : index} : index
        hls.dse.space_pack %15, %16, %14 ["k_KBufferDim", "t_ParEntries", "t_MaxSizeC"] : index, index, index
      }
      %12 = hls.dse.param @candidates <impl> candidates [#hls.impl<"" _ "">, #hls.impl<"vitis" _ "gemm">] {value = #hls.impl<"vitis" _ "gemm">} : !hls.impl
      %13 = hls.dse.space_select %12 [#hls.impl<"" _ "">, #hls.impl<"vitis" _ "gemm">] %10, %11 : !hls.impl, (!hls.space, !hls.space) -> !hls.space
      hls.dse.space_pack %7, %8, %9, %13 : index, index, index, !hls.space
    }
    %3 = hls.dse.space @task2() : () -> !hls.space {
      %7 = hls.dse.const_param <impl> {value = #hls.impl<"" _ "">} : !hls.impl
      %8 = hls.dse.const_param <tile> {value = 0 : index} : index
      %9 = hls.dse.param @tile1 <tile> range() #map2 step 1 {value = 0 : index} : index
      %10 = hls.dse.space @default(%8, %9) : (index, index) -> !hls.space {
      ^bb0(%arg0: index, %arg1: index):
        %12 = hls.dse.param @parallel0 <parallel> range(%arg0) #map1 step 1 {value = 2 : index} : index
        %13 = hls.dse.param @parallel1 <parallel> range(%arg1) #map1 step 1 {value = 2 : index} : index
        hls.dse.space_pack %12, %13 : index, index
      }
      %11 = hls.dse.space_select %7 [#hls.impl<"" _ "">] %10 : !hls.impl, (!hls.space) -> !hls.space
      hls.dse.space_pack %8, %9, %11 : index, index, !hls.space
    }
    %4 = hls.dse.space @task3() : () -> !hls.space {
      %7 = hls.dse.const_param <tile> {value = 0 : index} : index
      %8 = hls.dse.param @tile1 <tile> range() #map2 step 1 {value = 0 : index} : index
      %9 = hls.dse.param @tile2 <tile> range() #map3 step 1 {value = 0 : index} : index
      %10 = hls.dse.space @default(%7, %8, %9) : (index, index, index) -> !hls.space {
      ^bb0(%arg0: index, %arg1: index, %arg2: index):
        %14 = hls.dse.param @parallel0 <parallel> range(%arg0) #map1 step 1 {value = 2 : index} : index
        %15 = hls.dse.param @parallel1 <parallel> range(%arg1) #map1 step 1 {value = 2 : index} : index
        %16 = hls.dse.param @parallel2 <parallel> range(%arg2) #map1 step 1 {value = 2 : index} : index
        hls.dse.space_pack %14, %15, %16 : index, index, index
      }
      %11 = hls.dse.space @vitis_gemm() : () -> !hls.space {
        %14 = hls.dse.const_param <template> {value = 1024 : index} : index
        %15 = hls.dse.const_param <template> {value = 32 : index} : index
        %16 = hls.dse.param @t_ParEntries <template> candidates [2 : index, 4 : index, 8 : index] {value = 4 : index} : index
        hls.dse.space_pack %15, %16, %14 ["k_KBufferDim", "t_ParEntries", "t_MaxSizeC"] : index, index, index
      }
      %12 = hls.dse.param @candidates <impl> candidates [#hls.impl<"" _ "">, #hls.impl<"vitis" _ "gemm">] {value = #hls.impl<"vitis" _ "gemm">} : !hls.impl
      %13 = hls.dse.space_select %12 [#hls.impl<"" _ "">, #hls.impl<"vitis" _ "gemm">] %10, %11 : !hls.impl, (!hls.space, !hls.space) -> !hls.space
      hls.dse.space_pack %7, %8, %9, %13 : index, index, index, !hls.space
    }
    %5 = hls.dse.space @task4() : () -> !hls.space {
      %7 = hls.dse.const_param <impl> {value = #hls.impl<"" _ "">} : !hls.impl
      %8 = hls.dse.const_param <tile> {value = 0 : index} : index
      %9 = hls.dse.param @tile1 <tile> range() #map3 step 1 {value = 0 : index} : index
      %10 = hls.dse.space @default(%8, %9) : (index, index) -> !hls.space {
      ^bb0(%arg0: index, %arg1: index):
        %12 = hls.dse.param @parallel0 <parallel> range(%arg0) #map1 step 1 {value = 2 : index} : index
        %13 = hls.dse.param @parallel1 <parallel> range(%arg1) #map1 step 1 {value = 2 : index} : index
        hls.dse.space_pack %12, %13 : index, index
      }
      %11 = hls.dse.space_select %7 [#hls.impl<"" _ "">] %10 : !hls.impl, (!hls.space) -> !hls.space
      hls.dse.space_pack %8, %9, %11 : index, index, !hls.space
    }
    %6 = hls.dse.space @task5() : () -> !hls.space {
      %7 = hls.dse.const_param <tile> {value = 0 : index} : index
      %8 = hls.dse.param @tile1 <tile> range() #map3 step 1 {value = 0 : index} : index
      %9 = hls.dse.param @tile2 <tile> range() #map4 step 1 {value = 0 : index} : index
      %10 = hls.dse.space @default(%7, %8, %9) : (index, index, index) -> !hls.space {
      ^bb0(%arg0: index, %arg1: index, %arg2: index):
        %14 = hls.dse.param @parallel0 <parallel> range(%arg0) #map1 step 1 {value = 2 : index} : index
        %15 = hls.dse.param @parallel1 <parallel> range(%arg1) #map1 step 1 {value = 2 : index} : index
        %16 = hls.dse.param @parallel2 <parallel> range(%arg2) #map1 step 1 {value = 2 : index} : index
        hls.dse.space_pack %14, %15, %16 : index, index, index
      }
      %11 = hls.dse.space @vitis_gemm() : () -> !hls.space {
        %14 = hls.dse.const_param <template> {value = 1024 : index} : index
        %15 = hls.dse.const_param <template> {value = 32 : index} : index
        %16 = hls.dse.param @t_ParEntries <template> candidates [2 : index, 4 : index, 8 : index] {value = 4 : index} : index
        hls.dse.space_pack %15, %16, %14 ["k_KBufferDim", "t_ParEntries", "t_MaxSizeC"] : index, index, index
      }
      %12 = hls.dse.param @candidates <impl> candidates [#hls.impl<"" _ "">, #hls.impl<"vitis" _ "gemm">] {value = #hls.impl<"vitis" _ "gemm">} : !hls.impl
      %13 = hls.dse.space_select %12 [#hls.impl<"" _ "">, #hls.impl<"vitis" _ "gemm">] %10, %11 : !hls.impl, (!hls.space, !hls.space) -> !hls.space
      hls.dse.space_pack %7, %8, %9, %13 : index, index, index, !hls.space
    }
  }
  hls.uip.library @vitis {
    hls.uip.declare @gemm {
      hls.uip.include ["Vitis_Libraries/blas/L1/include/hw/xf_blas/gemm.hpp"]
      %1 = hls.dse.param @t_DataType <template> candidates [f32] : !hls.type
      %2 = hls.dse.param @t_IndexType <template> candidates [index] : !hls.type
      %3 = hls.dse.param @k_KBufferDim <template> candidates [32 : index] : index
      %4 = hls.dse.param @t_ParEntries <template> candidates [2 : index, 4 : index, 8 : index] : index
      %5 = hls.dse.param @t_MaxSizeC <template> candidates [1024 : index] : index
      %6 = hls.uip.port @p_m <param> type %2 sizes() #map5 : () -> !hls.port
      %7 = hls.uip.port @p_n <param> type %2 sizes() #map5 : () -> !hls.port
      %8 = hls.uip.port @p_k <param> type %2 sizes() #map5 : () -> !hls.port
      %9 = hls.uip.port @p_alpha <param> type %1 sizes() #map5 {value = 1.000000e+00 : f32} : () -> !hls.port
      %10 = hls.uip.port @p_beta <param> type %1 sizes() #map5 {value = 0.000000e+00 : f32} : () -> !hls.port
      %11 = hls.uip.port @p_a <input> type %1 sizes(%6, %8) #map6 : (!hls.port, !hls.port) -> !hls.port
      %12 = hls.uip.port @p_b <input> type %1 sizes(%8, %7) #map6 : (!hls.port, !hls.port) -> !hls.port
      %13 = hls.uip.port @p_c <input> type %1 sizes(%6, %7) #map6 : (!hls.port, !hls.port) -> !hls.port
      %14 = hls.uip.port @p_r <output> type %1 sizes(%6, %7) #map6 : (!hls.port, !hls.port) -> !hls.port
      hls.uip.semantics<%1, %2, %3, %4, %5> (%11, %12, %13, %14, %6, %7, %8, %9, %10) [0 : index, 1 : index, 2 : index, 3 : index] : <!hls.type, !hls.type, index, index, index> (!hls.port, !hls.port, !hls.port, !hls.port, !hls.port, !hls.port, !hls.port, !hls.port, !hls.port) {
      ^bb0(%arg0: tensor<?x?xf32>, %arg1: tensor<?x?xf32>, %arg2: tensor<?x?xf32>, %arg3: tensor<?x?xf32>):
        %15 = linalg.generic {indexing_maps = [#map7, #map8, #map9], iterator_types = ["parallel", "parallel", "reduction"]} ins(%arg1, %arg0 : tensor<?x?xf32>, tensor<?x?xf32>) outs(%arg2 : tensor<?x?xf32>) {
        ^bb0(%in: f32, %in_0: f32, %out: f32):
          %16 = arith.mulf %in, %in_0 : f32
          %17 = arith.addf %out, %16 : f32
          linalg.yield %17 : f32
        } -> tensor<?x?xf32>
        hls.uip.semantics.output %15 -> %arg3 : (tensor<?x?xf32>) -> tensor<?x?xf32>
      }
    }
  }
  ml_program.global private mutable @global_seed(dense<0> : tensor<i64>) : tensor<i64>
  func.func @forward_node0(%arg0: memref<1x10xf32>, %arg1: memref<10xf32>, %arg2: memref<1x10xf32>) {
    affine.for %arg3 = 0 to 1 {
      affine.for %arg4 = 0 to 10 {
        %1 = affine.load %arg0[0, %arg4] : memref<1x10xf32>
        %2 = affine.load %arg1[%arg4] : memref<10xf32>
        %3 = arith.addf %1, %2 : f32
        affine.store %3, %arg2[%arg3, %arg4] : memref<1x10xf32>
      }
    }
    return
  }
  func.func @forward_node1(%arg0: memref<1x32xf32>, %arg1: memref<32x10xf32>, %arg2: memref<1x10xf32>) {
    %c1 = arith.constant 1 : index
    %c10 = arith.constant 10 : index
    %c32 = arith.constant 32 : index
    %cst = arith.constant 1.000000e+00 : f32
    %cst_0 = arith.constant 0.000000e+00 : f32
    hls.uip.instance @vitis::@gemm<[f32, index, 32 : index, 4 : index, 1024 : index]> (%arg0, %arg1, %arg2, %arg2, %c1, %c10, %c32, %cst, %cst_0) : (memref<1x32xf32>, memref<32x10xf32>, memref<1x10xf32>, memref<1x10xf32>, index, index, index, f32, f32) -> ()
    return
  }
  func.func @forward_node2(%arg0: memref<1x32xf32>, %arg1: memref<32xf32>, %arg2: memref<1x32xf32>) {
    %cst = arith.constant 0.000000e+00 : f32
    affine.for %arg3 = 0 to 1 {
      affine.for %arg4 = 0 to 32 {
        %1 = affine.load %arg0[0, %arg4] : memref<1x32xf32>
        %2 = affine.load %arg1[%arg4] : memref<32xf32>
        %3 = arith.addf %1, %2 : f32
        %4 = arith.cmpf ugt, %3, %cst : f32
        %5 = arith.select %4, %3, %cst : f32
        affine.store %5, %arg2[%arg3, %arg4] : memref<1x32xf32>
      }
    }
    return
  }
  func.func @forward_node3(%arg0: memref<1x64xf32>, %arg1: memref<64x32xf32>, %arg2: memref<1x32xf32>) {
    %c64 = arith.constant 64 : index
    %c1 = arith.constant 1 : index
    %c32 = arith.constant 32 : index
    %cst = arith.constant 1.000000e+00 : f32
    %cst_0 = arith.constant 0.000000e+00 : f32
    hls.uip.instance @vitis::@gemm<[f32, index, 32 : index, 4 : index, 1024 : index]> (%arg0, %arg1, %arg2, %arg2, %c1, %c32, %c64, %cst, %cst_0) : (memref<1x64xf32>, memref<64x32xf32>, memref<1x32xf32>, memref<1x32xf32>, index, index, index, f32, f32) -> ()
    return
  }
  func.func @forward_node4(%arg0: memref<1x64xf32>, %arg1: memref<64xf32>, %arg2: memref<1x64xf32>) {
    %cst = arith.constant 0.000000e+00 : f32
    affine.for %arg3 = 0 to 1 {
      affine.for %arg4 = 0 to 64 {
        %1 = affine.load %arg0[0, %arg4] : memref<1x64xf32>
        %2 = affine.load %arg1[%arg4] : memref<64xf32>
        %3 = arith.addf %1, %2 : f32
        %4 = arith.cmpf ugt, %3, %cst : f32
        %5 = arith.select %4, %3, %cst : f32
        affine.store %5, %arg2[%arg3, %arg4] : memref<1x64xf32>
      }
    }
    return
  }
  func.func @forward_node5(%arg0: memref<1x3072xf32>, %arg1: memref<3072x64xf32>, %arg2: memref<1x64xf32>) {
    %c3072 = arith.constant 3072 : index
    %c64 = arith.constant 64 : index
    %c1 = arith.constant 1 : index
    %cst = arith.constant 1.000000e+00 : f32
    %cst_0 = arith.constant 0.000000e+00 : f32
    hls.uip.instance @vitis::@gemm<[f32, index, 32 : index, 4 : index, 1024 : index]> (%arg0, %arg1, %arg2, %arg2, %c1, %c64, %c3072, %cst, %cst_0) : (memref<1x3072xf32>, memref<3072x64xf32>, memref<1x64xf32>, memref<1x64xf32>, index, index, index, f32, f32) -> ()
    return
  }
  func.func @forward_node6(%arg0: memref<1x3x32x32xf32>, %arg1: memref<1x3072xf32>) {
    affine.for %arg2 = 0 to 3072 {
      %1 = affine.load %arg0[0, %arg2 floordiv 1024, (%arg2 mod 1024) floordiv 32, %arg2 mod 32] : memref<1x3x32x32xf32>
      affine.store %1, %arg1[0, %arg2] : memref<1x3072xf32>
    }
    return
  }
  func.func @forward(%arg0: memref<1x3x32x32xf32>, %arg1: memref<1x10xf32>, %arg2: memref<3072x64xf32>, %arg3: memref<64x32xf32>, %arg4: memref<1x3072xf32>) attributes {__top__} {
    %1 = hls.ubuf.const_buffer {value = dense<[… > : tensor<64xf32>} : memref<64xf32>
    %2 = hls.ubuf.const_buffer {value = dense<[… > : tensor<32xf32>} : memref<32xf32>
    %3 = hls.ubuf.const_buffer {value = dense<[0.00958554167, 0.119261459, -0.0320893042, 0.130560637, -0.141045183, 0.0103720445, -0.061505191, 0.0848515927, -0.153445825, -0.151923895]> : tensor<10xf32>} : memref<10xf32>
    %4 = hls.ubuf.const_buffer {value = dense<"…"> : tensor<32x10xf32>} : memref<32x10xf32>
    call @forward_node6(%arg0, %arg4) : (memref<1x3x32x32xf32>, memref<1x3072xf32>) -> ()
    %5 = hls.ubuf.buffer {depth = 1 : i32} : memref<1x64xf32>
    %6 = hls.ubuf.buffer {depth = 1 : i32, init_value = 0.000000e+00 : f32} : memref<1x64xf32>
    call @forward_node5(%arg4, %arg2, %6) : (memref<1x3072xf32>, memref<3072x64xf32>, memref<1x64xf32>) -> ()
    call @forward_node4(%6, %1, %5) : (memref<1x64xf32>, memref<64xf32>, memref<1x64xf32>) -> ()
    %7 = hls.ubuf.buffer {depth = 1 : i32} : memref<1x32xf32>
    %8 = hls.ubuf.buffer {depth = 1 : i32, init_value = 0.000000e+00 : f32} : memref<1x32xf32>
    call @forward_node3(%5, %arg3, %8) : (memref<1x64xf32>, memref<64x32xf32>, memref<1x32xf32>) -> ()
    call @forward_node2(%8, %2, %7) : (memref<1x32xf32>, memref<32xf32>, memref<1x32xf32>) -> ()
    %9 = hls.ubuf.buffer {depth = 1 : i32, init_value = 0.000000e+00 : f32} : memref<1x10xf32>
    call @forward_node1(%7, %4, %9) : (memref<1x32xf32>, memref<32x10xf32>, memref<1x10xf32>) -> ()
    call @forward_node0(%9, %3, %arg1) : (memref<1x10xf32>, memref<10xf32>, memref<1x10xf32>) -> ()
    return
  }
  func.func @runtime(%arg0: memref<1x3x32x32xf32>) -> memref<1x10xf32> attributes {__runtime__} {
    %1 = hls.ubuf.buffer {depth = 1 : i32} : memref<1x10xf32>
    %2 = hls.ubuf.const_buffer {value = dense<"…"> : tensor<3072x64xf32>} : memref<3072x64xf32>
    %3 = hls.ubuf.const_buffer {value = dense<"…"> : tensor<64x32xf32>} : memref<64x32xf32>
    %4 = hls.ubuf.buffer {depth = 1 : i32} : memref<1x3072xf32>
    call @forward(%arg0, %1, %2, %3, %4) : (memref<1x3x32x32xf32>, memref<1x10xf32>, memref<3072x64xf32>, memref<64x32xf32>, memref<1x3072xf32>) -> ()
    return %1 : memref<1x10xf32>
  }
}

