#map = affine_map<() -> (0, 10)>
#map1 = affine_map<()[s0] -> (0, s0)>
#map2 = affine_map<() -> (0, 32)>
#map3 = affine_map<() -> (0, 64)>
#map4 = affine_map<() -> (0, 3072)>
#map5 = affine_map<(d0) -> (-d0 + 1, 2)>
#map6 = affine_map<(d0, d1) -> (0, d1)>
#map7 = affine_map<(d0, d1) -> (d1)>
#map8 = affine_map<(d0, d1) -> (d0, d1)>
#map9 = affine_map<(d0) -> (-d0 + 10, 8)>
#map10 = affine_map<(d0, d1) -> (d0 - d1, 2)>
module attributes {torch.debug_module_name = "MLP"} {
  %0 = hls.dse.space @global() : () -> !hls.space {
    %1 = hls.dse.space @task0() : () -> !hls.space {
      %7 = hls.dse.const_param <impl> {value = #hls.impl<"" _ "">} : !hls.impl
      %8 = hls.dse.const_param <tile> {value = 0 : index} : index
      %9 = hls.dse.param @tile1 <tile> range() #map step 1 {value = 8 : index} : index
      %10 = hls.dse.space @default(%8, %9) : (index, index) -> !hls.space {
      ^bb0(%arg0: index, %arg1: index):
        %12 = hls.dse.param @parallel0 <parallel> range(%arg0) #map1 step 1 {value = 2 : index} : index
        %13 = hls.dse.param @parallel1 <parallel> range(%arg1) #map1 step 1 {value = 2 : index} : index
        hls.dse.space_pack %12, %13 : index, index
      }
      %11 = hls.dse.space_select %7 [#hls.impl<"" _ "">] %10 : !hls.impl, (!hls.space) -> !hls.space
      hls.dse.space_pack %8, %9, %11 : index, index, !hls.space
    }
    %2 = hls.dse.space @task1() : () -> !hls.space {
      %7 = hls.dse.const_param <impl> {value = #hls.impl<"" _ "">} : !hls.impl
      %8 = hls.dse.const_param <tile> {value = 0 : index} : index
      %9 = hls.dse.param @tile1 <tile> range() #map step 1 {value = 8 : index} : index
      %10 = hls.dse.param @tile2 <tile> range() #map2 step 1 {value = 8 : index} : index
      %11 = hls.dse.space @default(%8, %9, %10) : (index, index, index) -> !hls.space {
      ^bb0(%arg0: index, %arg1: index, %arg2: index):
        %13 = hls.dse.param @parallel0 <parallel> range(%arg0) #map1 step 1 {value = 2 : index} : index
        %14 = hls.dse.param @parallel1 <parallel> range(%arg1) #map1 step 1 {value = 2 : index} : index
        %15 = hls.dse.param @parallel2 <parallel> range(%arg2) #map1 step 1 {value = 2 : index} : index
        hls.dse.space_pack %13, %14, %15 : index, index, index
      }
      %12 = hls.dse.space_select %7 [#hls.impl<"" _ "">] %11 : !hls.impl, (!hls.space) -> !hls.space
      hls.dse.space_pack %8, %9, %10, %12 : index, index, index, !hls.space
    }
    %3 = hls.dse.space @task2() : () -> !hls.space {
      %7 = hls.dse.const_param <impl> {value = #hls.impl<"" _ "">} : !hls.impl
      %8 = hls.dse.const_param <tile> {value = 0 : index} : index
      %9 = hls.dse.param @tile1 <tile> range() #map2 step 1 {value = 8 : index} : index
      %10 = hls.dse.space @default(%8, %9) : (index, index) -> !hls.space {
      ^bb0(%arg0: index, %arg1: index):
        %12 = hls.dse.param @parallel0 <parallel> range(%arg0) #map1 step 1 {value = 2 : index} : index
        %13 = hls.dse.param @parallel1 <parallel> range(%arg1) #map1 step 1 {value = 2 : index} : index
        hls.dse.space_pack %12, %13 : index, index
      }
      %11 = hls.dse.space_select %7 [#hls.impl<"" _ "">] %10 : !hls.impl, (!hls.space) -> !hls.space
      hls.dse.space_pack %8, %9, %11 : index, index, !hls.space
    }
    %4 = hls.dse.space @task3() : () -> !hls.space {
      %7 = hls.dse.const_param <impl> {value = #hls.impl<"" _ "">} : !hls.impl
      %8 = hls.dse.const_param <tile> {value = 0 : index} : index
      %9 = hls.dse.param @tile1 <tile> range() #map2 step 1 {value = 8 : index} : index
      %10 = hls.dse.param @tile2 <tile> range() #map3 step 1 {value = 8 : index} : index
      %11 = hls.dse.space @default(%8, %9, %10) : (index, index, index) -> !hls.space {
      ^bb0(%arg0: index, %arg1: index, %arg2: index):
        %13 = hls.dse.param @parallel0 <parallel> range(%arg0) #map1 step 1 {value = 2 : index} : index
        %14 = hls.dse.param @parallel1 <parallel> range(%arg1) #map1 step 1 {value = 2 : index} : index
        %15 = hls.dse.param @parallel2 <parallel> range(%arg2) #map1 step 1 {value = 2 : index} : index
        hls.dse.space_pack %13, %14, %15 : index, index, index
      }
      %12 = hls.dse.space_select %7 [#hls.impl<"" _ "">] %11 : !hls.impl, (!hls.space) -> !hls.space
      hls.dse.space_pack %8, %9, %10, %12 : index, index, index, !hls.space
    }
    %5 = hls.dse.space @task4() : () -> !hls.space {
      %7 = hls.dse.const_param <impl> {value = #hls.impl<"" _ "">} : !hls.impl
      %8 = hls.dse.const_param <tile> {value = 0 : index} : index
      %9 = hls.dse.param @tile1 <tile> range() #map3 step 1 {value = 8 : index} : index
      %10 = hls.dse.space @default(%8, %9) : (index, index) -> !hls.space {
      ^bb0(%arg0: index, %arg1: index):
        %12 = hls.dse.param @parallel0 <parallel> range(%arg0) #map1 step 1 {value = 2 : index} : index
        %13 = hls.dse.param @parallel1 <parallel> range(%arg1) #map1 step 1 {value = 2 : index} : index
        hls.dse.space_pack %12, %13 : index, index
      }
      %11 = hls.dse.space_select %7 [#hls.impl<"" _ "">] %10 : !hls.impl, (!hls.space) -> !hls.space
      hls.dse.space_pack %8, %9, %11 : index, index, !hls.space
    }
    %6 = hls.dse.space @task5() : () -> !hls.space {
      %7 = hls.dse.const_param <impl> {value = #hls.impl<"" _ "">} : !hls.impl
      %8 = hls.dse.const_param <tile> {value = 0 : index} : index
      %9 = hls.dse.param @tile1 <tile> range() #map3 step 1 {value = 8 : index} : index
      %10 = hls.dse.param @tile2 <tile> range() #map4 step 1 {value = 8 : index} : index
      %11 = hls.dse.space @default(%8, %9, %10) : (index, index, index) -> !hls.space {
      ^bb0(%arg0: index, %arg1: index, %arg2: index):
        %13 = hls.dse.param @parallel0 <parallel> range(%arg0) #map1 step 1 {value = 2 : index} : index
        %14 = hls.dse.param @parallel1 <parallel> range(%arg1) #map1 step 1 {value = 2 : index} : index
        %15 = hls.dse.param @parallel2 <parallel> range(%arg2) #map1 step 1 {value = 2 : index} : index
        hls.dse.space_pack %13, %14, %15 : index, index, index
      }
      %12 = hls.dse.space_select %7 [#hls.impl<"" _ "">] %11 : !hls.impl, (!hls.space) -> !hls.space
      hls.dse.space_pack %8, %9, %10, %12 : index, index, index, !hls.space
    }
  }
  ml_program.global private mutable @global_seed(dense<0> : tensor<i64>) : tensor<i64>
  func.func @forward(%arg0: tensor<1x3x32x32xf32>) -> tensor<1x10xf32> {
    %c3072 = arith.constant 3072 : index
    %c64 = arith.constant 64 : index
    %c32 = arith.constant 32 : index
    %c10 = arith.constant 10 : index
    %c8 = arith.constant 8 : index
    %c1 = arith.constant 1 : index
    %c0 = arith.constant 0 : index
    %c2 = arith.constant 2 : index
    %cst = arith.constant 0.000000e+00 : f32
    %cst_0 = arith.constant dense<[… > : tensor<64xf32>
    %cst_1 = arith.constant dense<[… > : tensor<32xf32>
    %cst_2 = arith.constant dense<[-0.14196445, 0.00687254919, -0.0960719287, 0.12534672, -0.170464173, 0.170426175, 0.0576588884, -0.0434092097, -0.166537285, 0.137934595]> : tensor<10xf32>
    %cst_3 = arith.constant dense<"…"> : tensor<3072x64xf32>
    %cst_4 = arith.constant dense<"…"> : tensor<64x32xf32>
    %cst_5 = arith.constant dense<"…"> : tensor<32x10xf32>
    %1 = hls.fdf.dispatch : tensor<1x10xf32> {
      %2 = hls.fdf.task : tensor<1x3072xf32> {
        %collapsed = tensor.collapse_shape %arg0 [[0], [1, 2, 3]] : tensor<1x3x32x32xf32> into tensor<1x3072xf32>
        hls.fdf.yield %collapsed : tensor<1x3072xf32>
      }
      %3 = hls.fdf.alloc_tensor : () -> tensor<1x64xf32>
      %4 = hls.fdf.alloc_tensor %cst : (f32) -> tensor<1x64xf32>
      %5 = hls.fdf.task : tensor<1x64xf32> {
        %15 = scf.for %arg1 = %c0 to %c64 step %c8 iter_args(%arg2 = %4) -> (tensor<1x64xf32>) {
          %16 = scf.for %arg3 = %c0 to %c3072 step %c8 iter_args(%arg4 = %arg2) -> (tensor<1x64xf32>) {
            %extracted_slice = tensor.extract_slice %2[0, %arg3] [1, 8] [1, 1] : tensor<1x3072xf32> to tensor<1x8xf32>
            %extracted_slice_6 = tensor.extract_slice %cst_3[%arg3, %arg1] [8, 8] [1, 1] : tensor<3072x64xf32> to tensor<8x8xf32>
            %extracted_slice_7 = tensor.extract_slice %arg4[0, %arg1] [1, 8] [1, 1] : tensor<1x64xf32> to tensor<1x8xf32>
            %17 = scf.for %arg5 = %c0 to %c1 step %c2 iter_args(%arg6 = %extracted_slice_7) -> (tensor<1x8xf32>) {
              %18 = scf.for %arg7 = %c0 to %c8 step %c2 iter_args(%arg8 = %arg6) -> (tensor<1x8xf32>) {
                %19 = scf.for %arg9 = %c0 to %c8 step %c2 iter_args(%arg10 = %arg8) -> (tensor<1x8xf32>) {
                  %20 = affine.min #map5(%arg5)
                  %21 = affine.min #map5(%arg5)
                  %extracted_slice_8 = tensor.extract_slice %extracted_slice[%arg5, %arg9] [%20, 2] [1, 1] : tensor<1x8xf32> to tensor<?x2xf32>
                  %extracted_slice_9 = tensor.extract_slice %extracted_slice_6[%arg9, %arg7] [2, 2] [1, 1] : tensor<8x8xf32> to tensor<2x2xf32>
                  %extracted_slice_10 = tensor.extract_slice %arg10[%arg5, %arg7] [%21, 2] [1, 1] : tensor<1x8xf32> to tensor<?x2xf32>
                  %22 = linalg.matmul ins(%extracted_slice_8, %extracted_slice_9 : tensor<?x2xf32>, tensor<2x2xf32>) outs(%extracted_slice_10 : tensor<?x2xf32>) -> tensor<?x2xf32>
                  %inserted_slice_11 = tensor.insert_slice %22 into %arg10[%arg5, %arg7] [%21, 2] [1, 1] : tensor<?x2xf32> into tensor<1x8xf32>
                  scf.yield %inserted_slice_11 : tensor<1x8xf32>
                }
                scf.yield %19 : tensor<1x8xf32>
              }
              scf.yield %18 : tensor<1x8xf32>
            }
            %inserted_slice = tensor.insert_slice %17 into %arg4[0, %arg1] [1, 8] [1, 1] : tensor<1x8xf32> into tensor<1x64xf32>
            scf.yield %inserted_slice : tensor<1x64xf32>
          }
          scf.yield %16 : tensor<1x64xf32>
        }
        hls.fdf.yield %15 : tensor<1x64xf32>
      }
      %6 = hls.fdf.task : tensor<1x64xf32> {
        %15 = scf.for %arg1 = %c0 to %c64 step %c8 iter_args(%arg2 = %3) -> (tensor<1x64xf32>) {
          %extracted_slice = tensor.extract_slice %5[0, %arg1] [1, 8] [1, 1] : tensor<1x64xf32> to tensor<1x8xf32>
          %extracted_slice_6 = tensor.extract_slice %cst_0[%arg1] [8] [1] : tensor<64xf32> to tensor<8xf32>
          %extracted_slice_7 = tensor.extract_slice %arg2[0, %arg1] [1, 8] [1, 1] : tensor<1x64xf32> to tensor<1x8xf32>
          %16 = scf.for %arg3 = %c0 to %c1 step %c2 iter_args(%arg4 = %extracted_slice_7) -> (tensor<1x8xf32>) {
            %17 = scf.for %arg5 = %c0 to %c8 step %c2 iter_args(%arg6 = %arg4) -> (tensor<1x8xf32>) {
              %18 = affine.min #map5(%arg3)
              %extracted_slice_8 = tensor.extract_slice %extracted_slice[0, %arg5] [1, 2] [1, 1] : tensor<1x8xf32> to tensor<1x2xf32>
              %extracted_slice_9 = tensor.extract_slice %extracted_slice_6[%arg5] [2] [1] : tensor<8xf32> to tensor<2xf32>
              %extracted_slice_10 = tensor.extract_slice %arg6[%arg3, %arg5] [%18, 2] [1, 1] : tensor<1x8xf32> to tensor<?x2xf32>
              %19 = linalg.generic {indexing_maps = [#map6, #map7, #map8], iterator_types = ["parallel", "parallel"]} ins(%extracted_slice_8, %extracted_slice_9 : tensor<1x2xf32>, tensor<2xf32>) outs(%extracted_slice_10 : tensor<?x2xf32>) {
              ^bb0(%in: f32, %in_12: f32, %out: f32):
                %20 = arith.addf %in, %in_12 : f32
                %21 = arith.cmpf ugt, %20, %cst : f32
                %22 = arith.select %21, %20, %cst : f32
                linalg.yield %22 : f32
              } -> tensor<?x2xf32>
              %inserted_slice_11 = tensor.insert_slice %19 into %arg6[%arg3, %arg5] [%18, 2] [1, 1] : tensor<?x2xf32> into tensor<1x8xf32>
              scf.yield %inserted_slice_11 : tensor<1x8xf32>
            }
            scf.yield %17 : tensor<1x8xf32>
          }
          %inserted_slice = tensor.insert_slice %16 into %arg2[0, %arg1] [1, 8] [1, 1] : tensor<1x8xf32> into tensor<1x64xf32>
          scf.yield %inserted_slice : tensor<1x64xf32>
        }
        hls.fdf.yield %15 : tensor<1x64xf32>
      }
      %7 = hls.fdf.alloc_tensor : () -> tensor<1x32xf32>
      %8 = hls.fdf.alloc_tensor %cst : (f32) -> tensor<1x32xf32>
      %9 = hls.fdf.task : tensor<1x32xf32> {
        %15 = scf.for %arg1 = %c0 to %c32 step %c8 iter_args(%arg2 = %8) -> (tensor<1x32xf32>) {
          %16 = scf.for %arg3 = %c0 to %c64 step %c8 iter_args(%arg4 = %arg2) -> (tensor<1x32xf32>) {
            %extracted_slice = tensor.extract_slice %6[0, %arg3] [1, 8] [1, 1] : tensor<1x64xf32> to tensor<1x8xf32>
            %extracted_slice_6 = tensor.extract_slice %cst_4[%arg3, %arg1] [8, 8] [1, 1] : tensor<64x32xf32> to tensor<8x8xf32>
            %extracted_slice_7 = tensor.extract_slice %arg4[0, %arg1] [1, 8] [1, 1] : tensor<1x32xf32> to tensor<1x8xf32>
            %17 = scf.for %arg5 = %c0 to %c1 step %c2 iter_args(%arg6 = %extracted_slice_7) -> (tensor<1x8xf32>) {
              %18 = scf.for %arg7 = %c0 to %c8 step %c2 iter_args(%arg8 = %arg6) -> (tensor<1x8xf32>) {
                %19 = scf.for %arg9 = %c0 to %c8 step %c2 iter_args(%arg10 = %arg8) -> (tensor<1x8xf32>) {
                  %20 = affine.min #map5(%arg5)
                  %21 = affine.min #map5(%arg5)
                  %extracted_slice_8 = tensor.extract_slice %extracted_slice[%arg5, %arg9] [%20, 2] [1, 1] : tensor<1x8xf32> to tensor<?x2xf32>
                  %extracted_slice_9 = tensor.extract_slice %extracted_slice_6[%arg9, %arg7] [2, 2] [1, 1] : tensor<8x8xf32> to tensor<2x2xf32>
                  %extracted_slice_10 = tensor.extract_slice %arg10[%arg5, %arg7] [%21, 2] [1, 1] : tensor<1x8xf32> to tensor<?x2xf32>
                  %22 = linalg.matmul ins(%extracted_slice_8, %extracted_slice_9 : tensor<?x2xf32>, tensor<2x2xf32>) outs(%extracted_slice_10 : tensor<?x2xf32>) -> tensor<?x2xf32>
                  %inserted_slice_11 = tensor.insert_slice %22 into %arg10[%arg5, %arg7] [%21, 2] [1, 1] : tensor<?x2xf32> into tensor<1x8xf32>
                  scf.yield %inserted_slice_11 : tensor<1x8xf32>
                }
                scf.yield %19 : tensor<1x8xf32>
              }
              scf.yield %18 : tensor<1x8xf32>
            }
            %inserted_slice = tensor.insert_slice %17 into %arg4[0, %arg1] [1, 8] [1, 1] : tensor<1x8xf32> into tensor<1x32xf32>
            scf.yield %inserted_slice : tensor<1x32xf32>
          }
          scf.yield %16 : tensor<1x32xf32>
        }
        hls.fdf.yield %15 : tensor<1x32xf32>
      }
      %10 = hls.fdf.task : tensor<1x32xf32> {
        %15 = scf.for %arg1 = %c0 to %c32 step %c8 iter_args(%arg2 = %7) -> (tensor<1x32xf32>) {
          %extracted_slice = tensor.extract_slice %9[0, %arg1] [1, 8] [1, 1] : tensor<1x32xf32> to tensor<1x8xf32>
          %extracted_slice_6 = tensor.extract_slice %cst_1[%arg1] [8] [1] : tensor<32xf32> to tensor<8xf32>
          %extracted_slice_7 = tensor.extract_slice %arg2[0, %arg1] [1, 8] [1, 1] : tensor<1x32xf32> to tensor<1x8xf32>
          %16 = scf.for %arg3 = %c0 to %c1 step %c2 iter_args(%arg4 = %extracted_slice_7) -> (tensor<1x8xf32>) {
            %17 = scf.for %arg5 = %c0 to %c8 step %c2 iter_args(%arg6 = %arg4) -> (tensor<1x8xf32>) {
              %18 = affine.min #map5(%arg3)
              %extracted_slice_8 = tensor.extract_slice %extracted_slice[0, %arg5] [1, 2] [1, 1] : tensor<1x8xf32> to tensor<1x2xf32>
              %extracted_slice_9 = tensor.extract_slice %extracted_slice_6[%arg5] [2] [1] : tensor<8xf32> to tensor<2xf32>
              %extracted_slice_10 = tensor.extract_slice %arg6[%arg3, %arg5] [%18, 2] [1, 1] : tensor<1x8xf32> to tensor<?x2xf32>
              %19 = linalg.generic {indexing_maps = [#map6, #map7, #map8], iterator_types = ["parallel", "parallel"]} ins(%extracted_slice_8, %extracted_slice_9 : tensor<1x2xf32>, tensor<2xf32>) outs(%extracted_slice_10 : tensor<?x2xf32>) {
              ^bb0(%in: f32, %in_12: f32, %out: f32):
                %20 = arith.addf %in, %in_12 : f32
                %21 = arith.cmpf ugt, %20, %cst : f32
                %22 = arith.select %21, %20, %cst : f32
                linalg.yield %22 : f32
              } -> tensor<?x2xf32>
              %inserted_slice_11 = tensor.insert_slice %19 into %arg6[%arg3, %arg5] [%18, 2] [1, 1] : tensor<?x2xf32> into tensor<1x8xf32>
              scf.yield %inserted_slice_11 : tensor<1x8xf32>
            }
            scf.yield %17 : tensor<1x8xf32>
          }
          %inserted_slice = tensor.insert_slice %16 into %arg2[0, %arg1] [1, 8] [1, 1] : tensor<1x8xf32> into tensor<1x32xf32>
          scf.yield %inserted_slice : tensor<1x32xf32>
        }
        hls.fdf.yield %15 : tensor<1x32xf32>
      }
      %11 = hls.fdf.alloc_tensor : () -> tensor<1x10xf32>
      %12 = hls.fdf.alloc_tensor %cst : (f32) -> tensor<1x10xf32>
      %13 = hls.fdf.task : tensor<1x10xf32> {
        %15 = scf.for %arg1 = %c0 to %c10 step %c8 iter_args(%arg2 = %12) -> (tensor<1x10xf32>) {
          %16 = scf.for %arg3 = %c0 to %c32 step %c8 iter_args(%arg4 = %arg2) -> (tensor<1x10xf32>) {
            %17 = affine.min #map9(%arg1)
            %18 = affine.min #map9(%arg1)
            %extracted_slice = tensor.extract_slice %10[0, %arg3] [1, 8] [1, 1] : tensor<1x32xf32> to tensor<1x8xf32>
            %extracted_slice_6 = tensor.extract_slice %cst_5[%arg3, %arg1] [8, %17] [1, 1] : tensor<32x10xf32> to tensor<8x?xf32>
            %extracted_slice_7 = tensor.extract_slice %arg4[0, %arg1] [1, %18] [1, 1] : tensor<1x10xf32> to tensor<1x?xf32>
            %19 = scf.for %arg5 = %c0 to %c1 step %c2 iter_args(%arg6 = %extracted_slice_7) -> (tensor<1x?xf32>) {
              %20 = scf.for %arg7 = %c0 to %17 step %c2 iter_args(%arg8 = %arg6) -> (tensor<1x?xf32>) {
                %21 = scf.for %arg9 = %c0 to %c8 step %c2 iter_args(%arg10 = %arg8) -> (tensor<1x?xf32>) {
                  %22 = affine.min #map5(%arg5)
                  %23 = affine.min #map10(%17, %arg7)
                  %24 = affine.min #map5(%arg5)
                  %25 = affine.min #map10(%17, %arg7)
                  %extracted_slice_8 = tensor.extract_slice %extracted_slice[%arg5, %arg9] [%22, 2] [1, 1] : tensor<1x8xf32> to tensor<?x2xf32>
                  %extracted_slice_9 = tensor.extract_slice %extracted_slice_6[%arg9, %arg7] [2, %23] [1, 1] : tensor<8x?xf32> to tensor<2x?xf32>
                  %extracted_slice_10 = tensor.extract_slice %arg10[%arg5, %arg7] [%24, %25] [1, 1] : tensor<1x?xf32> to tensor<?x?xf32>
                  %26 = linalg.matmul ins(%extracted_slice_8, %extracted_slice_9 : tensor<?x2xf32>, tensor<2x?xf32>) outs(%extracted_slice_10 : tensor<?x?xf32>) -> tensor<?x?xf32>
                  %inserted_slice_11 = tensor.insert_slice %26 into %arg10[%arg5, %arg7] [%24, %25] [1, 1] : tensor<?x?xf32> into tensor<1x?xf32>
                  scf.yield %inserted_slice_11 : tensor<1x?xf32>
                }
                scf.yield %21 : tensor<1x?xf32>
              }
              scf.yield %20 : tensor<1x?xf32>
            }
            %inserted_slice = tensor.insert_slice %19 into %arg4[0, %arg1] [1, %18] [1, 1] : tensor<1x?xf32> into tensor<1x10xf32>
            scf.yield %inserted_slice : tensor<1x10xf32>
          }
          scf.yield %16 : tensor<1x10xf32>
        }
        hls.fdf.yield %15 : tensor<1x10xf32>
      }
      %14 = hls.fdf.task : tensor<1x10xf32> {
        %15 = scf.for %arg1 = %c0 to %c10 step %c8 iter_args(%arg2 = %11) -> (tensor<1x10xf32>) {
          %16 = affine.min #map9(%arg1)
          %17 = affine.min #map9(%arg1)
          %18 = affine.min #map9(%arg1)
          %extracted_slice = tensor.extract_slice %13[0, %arg1] [1, %16] [1, 1] : tensor<1x10xf32> to tensor<1x?xf32>
          %extracted_slice_6 = tensor.extract_slice %cst_2[%arg1] [%17] [1] : tensor<10xf32> to tensor<?xf32>
          %extracted_slice_7 = tensor.extract_slice %arg2[0, %arg1] [1, %18] [1, 1] : tensor<1x10xf32> to tensor<1x?xf32>
          %19 = scf.for %arg3 = %c0 to %c1 step %c2 iter_args(%arg4 = %extracted_slice_7) -> (tensor<1x?xf32>) {
            %20 = scf.for %arg5 = %c0 to %16 step %c2 iter_args(%arg6 = %arg4) -> (tensor<1x?xf32>) {
              %21 = affine.min #map10(%16, %arg5)
              %22 = affine.min #map10(%16, %arg5)
              %23 = affine.min #map5(%arg3)
              %24 = affine.min #map10(%16, %arg5)
              %extracted_slice_8 = tensor.extract_slice %extracted_slice[0, %arg5] [1, %21] [1, 1] : tensor<1x?xf32> to tensor<1x?xf32>
              %extracted_slice_9 = tensor.extract_slice %extracted_slice_6[%arg5] [%22] [1] : tensor<?xf32> to tensor<?xf32>
              %extracted_slice_10 = tensor.extract_slice %arg6[%arg3, %arg5] [%23, %24] [1, 1] : tensor<1x?xf32> to tensor<?x?xf32>
              %25 = linalg.generic {indexing_maps = [#map6, #map7, #map8], iterator_types = ["parallel", "parallel"]} ins(%extracted_slice_8, %extracted_slice_9 : tensor<1x?xf32>, tensor<?xf32>) outs(%extracted_slice_10 : tensor<?x?xf32>) {
              ^bb0(%in: f32, %in_12: f32, %out: f32):
                %26 = arith.addf %in, %in_12 : f32
                linalg.yield %26 : f32
              } -> tensor<?x?xf32>
              %inserted_slice_11 = tensor.insert_slice %25 into %arg6[%arg3, %arg5] [%23, %24] [1, 1] : tensor<?x?xf32> into tensor<1x?xf32>
              scf.yield %inserted_slice_11 : tensor<1x?xf32>
            }
            scf.yield %20 : tensor<1x?xf32>
          }
          %inserted_slice = tensor.insert_slice %19 into %arg2[0, %arg1] [1, %18] [1, 1] : tensor<1x?xf32> into tensor<1x10xf32>
          scf.yield %inserted_slice : tensor<1x10xf32>
        }
        hls.fdf.yield %15 : tensor<1x10xf32>
      }
      hls.fdf.yield %14 : tensor<1x10xf32>
    }
    return %1 : tensor<1x10xf32>
  }
}

