#map = affine_map<() -> (0, 10)>
#map1 = affine_map<()[s0] -> (0, s0)>
#map2 = affine_map<() -> (0, 32)>
#map3 = affine_map<() -> (0, 64)>
#map4 = affine_map<() -> (0, 3072)>
#map5 = affine_map<(d0, d1) -> (0, d1)>
#map6 = affine_map<(d0, d1) -> (d1)>
#map7 = affine_map<(d0, d1) -> (d0, d1)>
module attributes {torch.debug_module_name = "MLP"} {
  %0 = hls.dse.space @global() : () -> !hls.space {
    %1 = hls.dse.space @task0() : () -> !hls.space {
      %7 = hls.dse.const_param <impl> {value = #hls.impl<"" _ "">} : !hls.impl
      %8 = hls.dse.const_param <tile> {value = 0 : index} : index
      %9 = hls.dse.param @tile1 <tile> range() #map step 1 {value = 0 : index} : index
      %10 = hls.dse.space @default(%8, %9) : (index, index) -> !hls.space {
      ^bb0(%arg0: index, %arg1: index):
        %12 = hls.dse.param @parallel0 <parallel> range(%arg0) #map1 step 1 {value = 2 : index} : index
        %13 = hls.dse.param @parallel1 <parallel> range(%arg1) #map1 step 1 {value = 2 : index} : index
        hls.dse.space_pack %12, %13 : index, index
      }
      %11 = hls.dse.space_select %7 [#hls.impl<"" _ "">] %10 : !hls.impl, (!hls.space) -> !hls.space
      hls.dse.space_pack %8, %9, %11 : index, index, !hls.space
    }
    %2 = hls.dse.space @task1() : () -> !hls.space {
      %7 = hls.dse.const_param <impl> {value = #hls.impl<"" _ "">} : !hls.impl
      %8 = hls.dse.const_param <tile> {value = 0 : index} : index
      %9 = hls.dse.param @tile1 <tile> range() #map step 1 {value = 0 : index} : index
      %10 = hls.dse.param @tile2 <tile> range() #map2 step 1 {value = 0 : index} : index
      %11 = hls.dse.space @default(%8, %9, %10) : (index, index, index) -> !hls.space {
      ^bb0(%arg0: index, %arg1: index, %arg2: index):
        %13 = hls.dse.param @parallel0 <parallel> range(%arg0) #map1 step 1 {value = 2 : index} : index
        %14 = hls.dse.param @parallel1 <parallel> range(%arg1) #map1 step 1 {value = 2 : index} : index
        %15 = hls.dse.param @parallel2 <parallel> range(%arg2) #map1 step 1 {value = 2 : index} : index
        hls.dse.space_pack %13, %14, %15 : index, index, index
      }
      %12 = hls.dse.space_select %7 [#hls.impl<"" _ "">] %11 : !hls.impl, (!hls.space) -> !hls.space
      hls.dse.space_pack %8, %9, %10, %12 : index, index, index, !hls.space
    }
    %3 = hls.dse.space @task2() : () -> !hls.space {
      %7 = hls.dse.const_param <impl> {value = #hls.impl<"" _ "">} : !hls.impl
      %8 = hls.dse.const_param <tile> {value = 0 : index} : index
      %9 = hls.dse.param @tile1 <tile> range() #map2 step 1 {value = 0 : index} : index
      %10 = hls.dse.space @default(%8, %9) : (index, index) -> !hls.space {
      ^bb0(%arg0: index, %arg1: index):
        %12 = hls.dse.param @parallel0 <parallel> range(%arg0) #map1 step 1 {value = 2 : index} : index
        %13 = hls.dse.param @parallel1 <parallel> range(%arg1) #map1 step 1 {value = 2 : index} : index
        hls.dse.space_pack %12, %13 : index, index
      }
      %11 = hls.dse.space_select %7 [#hls.impl<"" _ "">] %10 : !hls.impl, (!hls.space) -> !hls.space
      hls.dse.space_pack %8, %9, %11 : index, index, !hls.space
    }
    %4 = hls.dse.space @task3() : () -> !hls.space {
      %7 = hls.dse.const_param <impl> {value = #hls.impl<"" _ "">} : !hls.impl
      %8 = hls.dse.const_param <tile> {value = 0 : index} : index
      %9 = hls.dse.param @tile1 <tile> range() #map2 step 1 {value = 0 : index} : index
      %10 = hls.dse.param @tile2 <tile> range() #map3 step 1 {value = 0 : index} : index
      %11 = hls.dse.space @default(%8, %9, %10) : (index, index, index) -> !hls.space {
      ^bb0(%arg0: index, %arg1: index, %arg2: index):
        %13 = hls.dse.param @parallel0 <parallel> range(%arg0) #map1 step 1 {value = 2 : index} : index
        %14 = hls.dse.param @parallel1 <parallel> range(%arg1) #map1 step 1 {value = 2 : index} : index
        %15 = hls.dse.param @parallel2 <parallel> range(%arg2) #map1 step 1 {value = 2 : index} : index
        hls.dse.space_pack %13, %14, %15 : index, index, index
      }
      %12 = hls.dse.space_select %7 [#hls.impl<"" _ "">] %11 : !hls.impl, (!hls.space) -> !hls.space
      hls.dse.space_pack %8, %9, %10, %12 : index, index, index, !hls.space
    }
    %5 = hls.dse.space @task4() : () -> !hls.space {
      %7 = hls.dse.const_param <impl> {value = #hls.impl<"" _ "">} : !hls.impl
      %8 = hls.dse.const_param <tile> {value = 0 : index} : index
      %9 = hls.dse.param @tile1 <tile> range() #map3 step 1 {value = 0 : index} : index
      %10 = hls.dse.space @default(%8, %9) : (index, index) -> !hls.space {
      ^bb0(%arg0: index, %arg1: index):
        %12 = hls.dse.param @parallel0 <parallel> range(%arg0) #map1 step 1 {value = 2 : index} : index
        %13 = hls.dse.param @parallel1 <parallel> range(%arg1) #map1 step 1 {value = 2 : index} : index
        hls.dse.space_pack %12, %13 : index, index
      }
      %11 = hls.dse.space_select %7 [#hls.impl<"" _ "">] %10 : !hls.impl, (!hls.space) -> !hls.space
      hls.dse.space_pack %8, %9, %11 : index, index, !hls.space
    }
    %6 = hls.dse.space @task5() : () -> !hls.space {
      %7 = hls.dse.const_param <impl> {value = #hls.impl<"" _ "">} : !hls.impl
      %8 = hls.dse.const_param <tile> {value = 0 : index} : index
      %9 = hls.dse.param @tile1 <tile> range() #map3 step 1 {value = 0 : index} : index
      %10 = hls.dse.param @tile2 <tile> range() #map4 step 1 {value = 0 : index} : index
      %11 = hls.dse.space @default(%8, %9, %10) : (index, index, index) -> !hls.space {
      ^bb0(%arg0: index, %arg1: index, %arg2: index):
        %13 = hls.dse.param @parallel0 <parallel> range(%arg0) #map1 step 1 {value = 2 : index} : index
        %14 = hls.dse.param @parallel1 <parallel> range(%arg1) #map1 step 1 {value = 2 : index} : index
        %15 = hls.dse.param @parallel2 <parallel> range(%arg2) #map1 step 1 {value = 2 : index} : index
        hls.dse.space_pack %13, %14, %15 : index, index, index
      }
      %12 = hls.dse.space_select %7 [#hls.impl<"" _ "">] %11 : !hls.impl, (!hls.space) -> !hls.space
      hls.dse.space_pack %8, %9, %10, %12 : index, index, index, !hls.space
    }
  }
  ml_program.global private mutable @global_seed(dense<0> : tensor<i64>) : tensor<i64>
  func.func @forward(%arg0: tensor<1x3x32x32xf32>) -> tensor<1x10xf32> {
    %cst = arith.constant 0.000000e+00 : f32
    %cst_0 = arith.constant dense<[… > : tensor<64xf32>
    %cst_1 = arith.constant dense<[… > : tensor<32xf32>
    %cst_2 = arith.constant dense<[-0.0893347933, 0.0595699139, 0.0236602072, 9.291390e-02, 7.423370e-02, 0.14119342, 0.0431348979, 0.116542168, 0.00214696047, -0.0128352325]> : tensor<10xf32>
    %cst_3 = arith.constant dense<"…"> : tensor<3072x64xf32>
    %cst_4 = arith.constant dense<"…"> : tensor<64x32xf32>
    %cst_5 = arith.constant dense<"…"> : tensor<32x10xf32>
    %1 = hls.fdf.dispatch : tensor<1x10xf32> {
      %2 = hls.fdf.task : tensor<1x3072xf32> {
        %collapsed = tensor.collapse_shape %arg0 [[0], [1, 2, 3]] : tensor<1x3x32x32xf32> into tensor<1x3072xf32>
        hls.fdf.yield %collapsed : tensor<1x3072xf32>
      }
      %3 = hls.fdf.alloc_tensor : () -> tensor<1x64xf32>
      %4 = hls.fdf.alloc_tensor %cst : (f32) -> tensor<1x64xf32>
      %5 = hls.fdf.task : tensor<1x64xf32> {
        %15 = linalg.matmul ins(%2, %cst_3 : tensor<1x3072xf32>, tensor<3072x64xf32>) outs(%4 : tensor<1x64xf32>) -> tensor<1x64xf32>
        hls.fdf.yield %15 : tensor<1x64xf32>
      }
      %6 = hls.fdf.task : tensor<1x64xf32> {
        %15 = linalg.generic {indexing_maps = [#map5, #map6, #map7], iterator_types = ["parallel", "parallel"]} ins(%5, %cst_0 : tensor<1x64xf32>, tensor<64xf32>) outs(%3 : tensor<1x64xf32>) {
        ^bb0(%in: f32, %in_6: f32, %out: f32):
          %16 = arith.addf %in, %in_6 : f32
          %17 = arith.cmpf ugt, %16, %cst : f32
          %18 = arith.select %17, %16, %cst : f32
          linalg.yield %18 : f32
        } -> tensor<1x64xf32>
        hls.fdf.yield %15 : tensor<1x64xf32>
      }
      %7 = hls.fdf.alloc_tensor : () -> tensor<1x32xf32>
      %8 = hls.fdf.alloc_tensor %cst : (f32) -> tensor<1x32xf32>
      %9 = hls.fdf.task : tensor<1x32xf32> {
        %15 = linalg.matmul ins(%6, %cst_4 : tensor<1x64xf32>, tensor<64x32xf32>) outs(%8 : tensor<1x32xf32>) -> tensor<1x32xf32>
        hls.fdf.yield %15 : tensor<1x32xf32>
      }
      %10 = hls.fdf.task : tensor<1x32xf32> {
        %15 = linalg.generic {indexing_maps = [#map5, #map6, #map7], iterator_types = ["parallel", "parallel"]} ins(%9, %cst_1 : tensor<1x32xf32>, tensor<32xf32>) outs(%7 : tensor<1x32xf32>) {
        ^bb0(%in: f32, %in_6: f32, %out: f32):
          %16 = arith.addf %in, %in_6 : f32
          %17 = arith.cmpf ugt, %16, %cst : f32
          %18 = arith.select %17, %16, %cst : f32
          linalg.yield %18 : f32
        } -> tensor<1x32xf32>
        hls.fdf.yield %15 : tensor<1x32xf32>
      }
      %11 = hls.fdf.alloc_tensor : () -> tensor<1x10xf32>
      %12 = hls.fdf.alloc_tensor %cst : (f32) -> tensor<1x10xf32>
      %13 = hls.fdf.task : tensor<1x10xf32> {
        %15 = linalg.matmul ins(%10, %cst_5 : tensor<1x32xf32>, tensor<32x10xf32>) outs(%12 : tensor<1x10xf32>) -> tensor<1x10xf32>
        hls.fdf.yield %15 : tensor<1x10xf32>
      }
      %14 = hls.fdf.task : tensor<1x10xf32> {
        %15 = linalg.generic {indexing_maps = [#map5, #map6, #map7], iterator_types = ["parallel", "parallel"]} ins(%13, %cst_2 : tensor<1x10xf32>, tensor<10xf32>) outs(%11 : tensor<1x10xf32>) {
        ^bb0(%in: f32, %in_6: f32, %out: f32):
          %16 = arith.addf %in, %in_6 : f32
          linalg.yield %16 : f32
        } -> tensor<1x10xf32>
        hls.fdf.yield %15 : tensor<1x10xf32>
      }
      hls.fdf.yield %14 : tensor<1x10xf32>
    }
    return %1 : tensor<1x10xf32>
  }
}

