#map = affine_map<() -> (0, 10)>
#map1 = affine_map<()[s0] -> (0, s0)>
#map2 = affine_map<() -> (0, 14400)>
#map3 = affine_map<() -> (0, 16)>
#map4 = affine_map<() -> (0, 30)>
#map5 = affine_map<() -> (0, 3)>
#map6 = affine_map<(d0, d1, d2) -> (d0, d1, d2)>
#map7 = affine_map<(d0, d1, d2, d3) -> (d0, d1, d2, d3)>
#map8 = affine_map<(d0, d1, d2, d3, d4, d5) -> (d1 + d3, d2 + d4, d5)>
#map9 = affine_map<(d0, d1, d2, d3, d4, d5) -> (d3, d4, d5, d0)>
#map10 = affine_map<(d0, d1, d2, d3, d4, d5) -> (d1, d2, d0)>
module attributes {torch.debug_module_name = "ConvMLP"} {
  %0 = hls.dse.space @global() : () -> !hls.space {
    %1 = hls.dse.space @task0() : () -> !hls.space {
      %5 = hls.dse.const_param <impl> {value = #hls.impl<"" _ "">} : !hls.impl
      %6 = hls.dse.const_param <tile> {value = 0 : index} : index
      %7 = hls.dse.param @tile1 <tile> range() #map step 1 {value = 0 : index} : index
      %8 = hls.dse.space @default(%6, %7) : (index, index) -> !hls.space {
      ^bb0(%arg0: index, %arg1: index):
        %10 = hls.dse.param @parallel0 <parallel> range(%arg0) #map1 step 1 {value = 0 : index} : index
        %11 = hls.dse.param @parallel1 <parallel> range(%arg1) #map1 step 1 {value = 0 : index} : index
        hls.dse.space_pack %10, %11 : index, index
      }
      %9 = hls.dse.space_select %5 [#hls.impl<"" _ "">] %8 : !hls.impl, (!hls.space) -> !hls.space
      hls.dse.space_pack %6, %7, %9 : index, index, !hls.space
    }
    %2 = hls.dse.space @task1() : () -> !hls.space {
      %5 = hls.dse.const_param <impl> {value = #hls.impl<"" _ "">} : !hls.impl
      %6 = hls.dse.const_param <tile> {value = 0 : index} : index
      %7 = hls.dse.param @tile1 <tile> range() #map step 1 {value = 0 : index} : index
      %8 = hls.dse.param @tile2 <tile> range() #map2 step 1 {value = 0 : index} : index
      %9 = hls.dse.space @default(%6, %7, %8) : (index, index, index) -> !hls.space {
      ^bb0(%arg0: index, %arg1: index, %arg2: index):
        %11 = hls.dse.param @parallel0 <parallel> range(%arg0) #map1 step 1 {value = 0 : index} : index
        %12 = hls.dse.param @parallel1 <parallel> range(%arg1) #map1 step 1 {value = 0 : index} : index
        %13 = hls.dse.param @parallel2 <parallel> range(%arg2) #map1 step 1 {value = 0 : index} : index
        hls.dse.space_pack %11, %12, %13 : index, index, index
      }
      %10 = hls.dse.space_select %5 [#hls.impl<"" _ "">] %9 : !hls.impl, (!hls.space) -> !hls.space
      hls.dse.space_pack %6, %7, %8, %10 : index, index, index, !hls.space
    }
    %3 = hls.dse.space @task2() : () -> !hls.space {
      %5 = hls.dse.const_param <impl> {value = #hls.impl<"" _ "">} : !hls.impl
      %6 = hls.dse.const_param <tile> {value = 0 : index} : index
      %7 = hls.dse.param @tile1 <tile> range() #map3 step 1 {value = 0 : index} : index
      %8 = hls.dse.param @tile2 <tile> range() #map4 step 1 {value = 0 : index} : index
      %9 = hls.dse.param @tile3 <tile> range() #map4 step 1 {value = 0 : index} : index
      %10 = hls.dse.param @tile5 <tile> range() #map5 step 1 {value = 0 : index} : index
      %11 = hls.dse.param @tile6 <tile> range() #map5 step 1 {value = 0 : index} : index
      %12 = hls.dse.space @default(%6, %7, %8, %9, %6, %10, %11) : (index, index, index, index, index, index, index) -> !hls.space {
      ^bb0(%arg0: index, %arg1: index, %arg2: index, %arg3: index, %arg4: index, %arg5: index, %arg6: index):
        %14 = hls.dse.param @parallel0 <parallel> range(%arg0) #map1 step 1 {value = 0 : index} : index
        %15 = hls.dse.param @parallel1 <parallel> range(%arg1) #map1 step 1 {value = 0 : index} : index
        %16 = hls.dse.param @parallel2 <parallel> range(%arg2) #map1 step 1 {value = 0 : index} : index
        %17 = hls.dse.param @parallel3 <parallel> range(%arg3) #map1 step 1 {value = 0 : index} : index
        %18 = hls.dse.param @parallel4 <parallel> range(%arg4) #map1 step 1 {value = 0 : index} : index
        %19 = hls.dse.param @parallel5 <parallel> range(%arg5) #map1 step 1 {value = 0 : index} : index
        %20 = hls.dse.param @parallel6 <parallel> range(%arg6) #map1 step 1 {value = 0 : index} : index
        hls.dse.space_pack %14, %15, %16, %17, %18, %19, %20 : index, index, index, index, index, index, index
      }
      %13 = hls.dse.space_select %5 [#hls.impl<"" _ "">] %12 : !hls.impl, (!hls.space) -> !hls.space
      hls.dse.space_pack %6, %7, %8, %9, %6, %10, %11, %13 : index, index, index, index, index, index, index, !hls.space
    }
    %4 = hls.dse.space @task3() : () -> !hls.space {
      %5 = hls.dse.const_param <impl> {value = #hls.impl<"" _ "">} : !hls.impl
      %6 = hls.dse.const_param <tile> {value = 0 : index} : index
      %7 = hls.dse.param @tile1 <tile> range() #map3 step 1 {value = 0 : index} : index
      %8 = hls.dse.param @tile2 <tile> range() #map4 step 1 {value = 0 : index} : index
      %9 = hls.dse.param @tile3 <tile> range() #map4 step 1 {value = 0 : index} : index
      %10 = hls.dse.space @default(%6, %7, %8, %9) : (index, index, index, index) -> !hls.space {
      ^bb0(%arg0: index, %arg1: index, %arg2: index, %arg3: index):
        %12 = hls.dse.param @parallel0 <parallel> range(%arg0) #map1 step 1 {value = 0 : index} : index
        %13 = hls.dse.param @parallel1 <parallel> range(%arg1) #map1 step 1 {value = 0 : index} : index
        %14 = hls.dse.param @parallel2 <parallel> range(%arg2) #map1 step 1 {value = 0 : index} : index
        %15 = hls.dse.param @parallel3 <parallel> range(%arg3) #map1 step 1 {value = 0 : index} : index
        hls.dse.space_pack %12, %13, %14, %15 : index, index, index, index
      }
      %11 = hls.dse.space_select %5 [#hls.impl<"" _ "">] %10 : !hls.impl, (!hls.space) -> !hls.space
      hls.dse.space_pack %6, %7, %8, %9, %11 : index, index, index, index, !hls.space
    }
  }
  hls.uip.library @hls4ml {
    hls.uip.declare @conv_2d_cl {
      %1 = hls.dse.const_param <template> {value = "conv2d_config"} : !hls.type
      hls.uip.include ["src/nnet_conv2d.h"]
      %2 = hls.dse.param @bias_t <template> candidates [f32] : !hls.type
      %3 = hls.dse.param @weight_t <template> candidates [f32] : !hls.type
      %4 = hls.dse.param @accum_t <template> candidates [f32] : !hls.type
      %5 = hls.dse.param @pad_top <template> candidates [0 : index] : index
      %6 = hls.dse.param @pad_bottom <template> candidates [0 : index] : index
      %7 = hls.dse.param @pad_left <template> candidates [0 : index] : index
      %8 = hls.dse.param @pad_right <template> candidates [0 : index] : index
      %9 = hls.dse.param @in_height <template> candidates [32 : index] : index
      %10 = hls.dse.param @in_width <template> candidates [32 : index] : index
      %11 = hls.dse.param @n_chan <template> candidates [1 : index] : index
      %12 = hls.dse.param @filt_height <template> candidates [3 : index] : index
      %13 = hls.dse.param @filt_width <template> candidates [3 : index] : index
      %14 = hls.dse.param @n_filt <template> candidates [16 : index] : index
      %15 = hls.dse.param @stride_height <template> candidates [1 : index] : index
      %16 = hls.dse.param @stride_width <template> candidates [1 : index] : index
      %17 = hls.dse.param @out_height <template> candidates [30 : index] : index
      %18 = hls.dse.param @out_width <template> candidates [30 : index] : index
      %19 = hls.dse.param @dilation_height <template> candidates [1 : index] : index
      %20 = hls.dse.param @dilation_width <template> candidates [1 : index] : index
      %21 = hls.dse.param @reuse_factor <template> candidates [1 : index] : index
      %22 = hls.dse.param @n_zeros <template> candidates [0 : index] : index
      hls.uip.struct @conv2d_config<%2, %3, %4, %5, %6, %7, %8, %9, %10, %11, %12, %13, %14, %15, %16, %17, %18, %19, %20, %21, %22> () : <!hls.type, !hls.type, !hls.type, index, index, index, index, index, index, index, index, index, index, index, index, index, index, index, index, index, index> ()
      %23 = hls.dse.param @data_size <template> candidates [1024 : index] : index
      %24 = hls.dse.param @result_size <template> candidates [14400 : index] : index
      %25 = hls.dse.param @weight_size <template> candidates [144 : index] : index
      %26 = hls.dse.param @data_T <template> candidates [f32] : !hls.type
      %27 = hls.dse.param @res_T <template> candidates [f32] : !hls.type
      %28 = hls.uip.port @data <input> type %26 sizes(%9, %10, %11) #map6 : (index, index, index) -> !hls.port
      %29 = hls.uip.port @result <input> type %27 sizes(%17, %18, %14) #map6 : (index, index, index) -> !hls.port
      %30 = hls.uip.port @weights <input> type %3 sizes(%12, %13, %11, %14) #map7 : (index, index, index, index) -> !hls.port
      %31 = hls.uip.port @dummy_result <input> type %27 sizes(%17, %18, %14) #map6 : (index, index, index) -> !hls.port
      hls.uip.semantics<%1, %26, %27> (%28, %29, %30, %31) [0 : index, 1 : index, 2 : index, 3 : index] : <!hls.type, !hls.type, !hls.type> (!hls.port, !hls.port, !hls.port, !hls.port) {
      ^bb0(%arg0: tensor<?x?x?xf32>, %arg1: tensor<?x?x?xf32>, %arg2: tensor<?x?x?x?xf32>, %arg3: tensor<?x?x?xf32>):
        %32 = linalg.generic {indexing_maps = [#map8, #map9, #map10], iterator_types = ["parallel", "parallel", "parallel", "reduction", "reduction", "reduction"]} ins(%arg0, %arg2 : tensor<?x?x?xf32>, tensor<?x?x?x?xf32>) outs(%arg3 : tensor<?x?x?xf32>) {
        ^bb0(%in: f32, %in_0: f32, %out: f32):
          %33 = arith.mulf %in, %in_0 : f32
          %34 = arith.addf %out, %33 : f32
          linalg.yield %34 : f32
        } -> tensor<?x?x?xf32>
        hls.uip.semantics.output %32 -> %arg1 : (tensor<?x?x?xf32>) -> tensor<?x?x?xf32>
      }
    }
  }
  ml_program.global private mutable @global_seed(dense<0> : tensor<i64>) : tensor<i64>
  func.func @forward_node0(%arg0: memref<1x10xf32>, %arg1: memref<10xf32>, %arg2: memref<1x10xf32>) {
    affine.for %arg3 = 0 to 1 {
      affine.for %arg4 = 0 to 10 {
        %1 = affine.load %arg0[0, %arg4] : memref<1x10xf32>
        %2 = affine.load %arg1[%arg4] : memref<10xf32>
        %3 = arith.addf %1, %2 : f32
        affine.store %3, %arg2[%arg3, %arg4] : memref<1x10xf32>
      }
    }
    return
  }
  func.func @forward_node1(%arg0: memref<1x14400xf32>, %arg1: memref<14400x10xf32>, %arg2: memref<1x10xf32>) {
    affine.for %arg3 = 0 to 1 {
      affine.for %arg4 = 0 to 10 {
        affine.for %arg5 = 0 to 14400 {
          %1 = affine.load %arg0[%arg3, %arg5] : memref<1x14400xf32>
          %2 = affine.load %arg1[%arg5, %arg4] : memref<14400x10xf32>
          %3 = affine.load %arg2[%arg3, %arg4] : memref<1x10xf32>
          %4 = arith.mulf %1, %2 : f32
          %5 = arith.addf %3, %4 : f32
          affine.store %5, %arg2[%arg3, %arg4] : memref<1x10xf32>
        }
      }
    }
    return
  }
  func.func @forward_node2(%arg0: memref<1x16x30x30xf32>, %arg1: memref<1x14400xf32>) {
    affine.for %arg2 = 0 to 14400 {
      %1 = affine.load %arg0[0, %arg2 floordiv 900, (%arg2 mod 900) floordiv 30, %arg2 mod 30] : memref<1x16x30x30xf32>
      affine.store %1, %arg1[0, %arg2] : memref<1x14400xf32>
    }
    return
  }
  func.func @forward_node3(%arg0: memref<1x1x32x32xf32>, %arg1: memref<16x1x3x3xf32>, %arg2: memref<1x16x30x30xf32>) {
    affine.for %arg3 = 0 to 1 {
      affine.for %arg4 = 0 to 16 {
        affine.for %arg5 = 0 to 30 {
          affine.for %arg6 = 0 to 30 {
            affine.for %arg7 = 0 to 1 {
              affine.for %arg8 = 0 to 3 {
                affine.for %arg9 = 0 to 3 {
                  %1 = affine.load %arg0[%arg3, %arg7, %arg5 + %arg8, %arg6 + %arg9] : memref<1x1x32x32xf32>
                  %2 = affine.load %arg1[%arg4, %arg7, %arg8, %arg9] : memref<16x1x3x3xf32>
                  %3 = affine.load %arg2[%arg3, %arg4, %arg5, %arg6] : memref<1x16x30x30xf32>
                  %4 = arith.mulf %1, %2 : f32
                  %5 = arith.addf %3, %4 : f32
                  affine.store %5, %arg2[%arg3, %arg4, %arg5, %arg6] : memref<1x16x30x30xf32>
                }
              }
            }
          }
        }
      }
    }
    return
  }
  func.func @forward_node4(%arg0: memref<16xf32>, %arg1: memref<1x16x30x30xf32>) {
    affine.for %arg2 = 0 to 1 {
      affine.for %arg3 = 0 to 16 {
        affine.for %arg4 = 0 to 30 {
          affine.for %arg5 = 0 to 30 {
            %1 = affine.load %arg0[%arg3] : memref<16xf32>
            affine.store %1, %arg1[%arg2, %arg3, %arg4, %arg5] : memref<1x16x30x30xf32>
          }
        }
      }
    }
    return
  }
  func.func @forward(%arg0: memref<1x1x32x32xf32>, %arg1: memref<1x10xf32>, %arg2: memref<14400x10xf32>, %arg3: memref<1x16x30x30xf32>, %arg4: memref<1x14400xf32>) attributes {__top__} {
    %1 = hls.ubuf.const_buffer {value = dense<"…"> : tensor<16x1x3x3xf32>} : memref<16x1x3x3xf32>
    %2 = hls.ubuf.const_buffer {value = dense<[… > : tensor<16xf32>} : memref<16xf32>
    %3 = hls.ubuf.const_buffer {value = dense<[0.00572937168, 0.00350899226, -0.00143244269, 0.00164820265, 0.00219725189, -0.00276477053, -0.00190400588, -0.00276631932, -0.00639863266, -0.00313482806]> : tensor<10xf32>} : memref<10xf32>
    call @forward_node4(%2, %arg3) : (memref<16xf32>, memref<1x16x30x30xf32>) -> ()
    call @forward_node3(%arg0, %1, %arg3) : (memref<1x1x32x32xf32>, memref<16x1x3x3xf32>, memref<1x16x30x30xf32>) -> ()
    call @forward_node2(%arg3, %arg4) : (memref<1x16x30x30xf32>, memref<1x14400xf32>) -> ()
    %4 = hls.ubuf.buffer {depth = 1 : i32, init_value = 0.000000e+00 : f32} : memref<1x10xf32>
    call @forward_node1(%arg4, %arg2, %4) : (memref<1x14400xf32>, memref<14400x10xf32>, memref<1x10xf32>) -> ()
    call @forward_node0(%4, %3, %arg1) : (memref<1x10xf32>, memref<10xf32>, memref<1x10xf32>) -> ()
    return
  }
  func.func @runtime(%arg0: memref<1x1x32x32xf32>) -> memref<1x10xf32> attributes {__runtime__} {
    %1 = hls.ubuf.buffer {depth = 1 : i32} : memref<1x10xf32>
    %2 = hls.ubuf.const_buffer {value = dense<"…"> : tensor<14400x10xf32>} : memref<14400x10xf32>
    %3 = hls.ubuf.buffer {depth = 1 : i32} : memref<1x16x30x30xf32>
    %4 = hls.ubuf.buffer {depth = 1 : i32} : memref<1x14400xf32>
    call @forward(%arg0, %1, %2, %3, %4) : (memref<1x1x32x32xf32>, memref<1x10xf32>, memref<14400x10xf32>, memref<1x16x30x30xf32>, memref<1x14400xf32>) -> ()
    return %1 : memref<1x10xf32>
  }
}

