#map = affine_map<() -> (0, 10)>
#map1 = affine_map<()[s0] -> (0, s0)>
#map2 = affine_map<() -> (0, 1024)>
#map3 = affine_map<() -> ()>
#map4 = affine_map<(d0, d1)[s0] -> (d0 ceildiv s0, d1 ceildiv s0)>
#map5 = affine_map<(d0, d1) -> (d0, d1)>
#map6 = affine_map<(d0, d1, d2) -> (d2, d1)>
#map7 = affine_map<(d0, d1, d2) -> (d0, d2)>
#map8 = affine_map<(d0, d1, d2) -> (d0, d1)>
#map9 = affine_map<(d0, d1) -> (0, d1)>
#map10 = affine_map<(d0, d1) -> (d1)>
module attributes {torch.debug_module_name = "MLP"} {
  %0 = hls.dse.space @global() : () -> !hls.space {
    %1 = hls.dse.space @task0() : () -> !hls.space {
      %3 = hls.dse.const_param <impl> {value = #hls.impl<"" _ "">} : !hls.impl
      %4 = hls.dse.const_param <tile> {value = 0 : index} : index
      %5 = hls.dse.param @tile1 <tile> range() #map step 1 {value = 0 : index} : index
      %6 = hls.dse.space @default(%4, %5) : (index, index) -> !hls.space {
      ^bb0(%arg0: index, %arg1: index):
        %8 = hls.dse.param @parallel0 <parallel> range(%arg0) #map1 step 1 {value = 0 : index} : index
        %9 = hls.dse.param @parallel1 <parallel> range(%arg1) #map1 step 1 {value = 0 : index} : index
        hls.dse.space_pack %8, %9 : index, index
      }
      %7 = hls.dse.space_select %3 [#hls.impl<"" _ "">] %6 : !hls.impl, (!hls.space) -> !hls.space
      hls.dse.space_pack %4, %5, %7 : index, index, !hls.space
    }
    %2 = hls.dse.space @task1() : () -> !hls.space {
      %3 = hls.dse.const_param <tile> {value = 0 : index} : index
      %4 = hls.dse.param @tile1 <tile> range() #map step 1 {value = 0 : index} : index
      %5 = hls.dse.param @tile2 <tile> range() #map2 step 1 {value = 0 : index} : index
      %6 = hls.dse.space @default(%3, %4, %5) : (index, index, index) -> !hls.space {
      ^bb0(%arg0: index, %arg1: index, %arg2: index):
        %10 = hls.dse.param @parallel0 <parallel> range(%arg0) #map1 step 1 {value = 0 : index} : index
        %11 = hls.dse.param @parallel1 <parallel> range(%arg1) #map1 step 1 {value = 0 : index} : index
        %12 = hls.dse.param @parallel2 <parallel> range(%arg2) #map1 step 1 {value = 0 : index} : index
        hls.dse.space_pack %10, %11, %12 : index, index, index
      }
      %7 = hls.dse.space @vitis_gemm() : () -> !hls.space {
        %10 = hls.dse.const_param <template> {value = 1024 : index} : index
        %11 = hls.dse.const_param <template> {value = 32 : index} : index
        %12 = hls.dse.param @t_ParEntries <template> candidates [2 : index, 4 : index, 8 : index] {value = 4 : index} : index
        hls.dse.space_pack %11, %12, %10 ["k_KBufferDim", "t_ParEntries", "t_MaxSizeC"] : index, index, index
      }
      %8 = hls.dse.param @candidates <impl> candidates [#hls.impl<"" _ "">, #hls.impl<"vitis" _ "gemm">] {value = #hls.impl<"vitis" _ "gemm">} : !hls.impl
      %9 = hls.dse.space_select %8 [#hls.impl<"" _ "">, #hls.impl<"vitis" _ "gemm">] %6, %7 : !hls.impl, (!hls.space, !hls.space) -> !hls.space
      hls.dse.space_pack %3, %4, %5, %9 : index, index, index, !hls.space
    }
  }
  hls.uip.library @vitis {
    hls.uip.declare @gemm {
      hls.uip.include ["Vitis_Libraries/blas/L1/include/hw/xf_blas/gemm.hpp"]
      %1 = hls.dse.param @t_DataType <template> candidates [f32] : !hls.type
      %2 = hls.dse.param @t_IndexType <template> candidates [index] : !hls.type
      %3 = hls.dse.param @k_KBufferDim <template> candidates [32 : index] : index
      %4 = hls.dse.param @t_ParEntries <template> candidates [2 : index, 4 : index, 8 : index] : index
      %5 = hls.dse.param @t_MaxSizeC <template> candidates [1024 : index] : index
      %6 = hls.uip.port @p_m <param> type %2 sizes() #map3 : () -> !hls.port
      %7 = hls.uip.port @p_n <param> type %2 sizes() #map3 : () -> !hls.port
      %8 = hls.uip.port @p_k <param> type %2 sizes() #map3 : () -> !hls.port
      %9 = hls.uip.port @p_alpha <param> type %1 sizes() #map3 {value = 1.000000e+00 : f32} : () -> !hls.port
      %10 = hls.uip.port @p_beta <param> type %1 sizes() #map3 {value = 0.000000e+00 : f32} : () -> !hls.port
      hls.uip.struct @my_test_struct<%3, %4, %5> () : <index, index, index> ()
      %11 = hls.uip.port @p_a <input> type %1 sizes(%6, %8) #map4 : (!hls.port, !hls.port) -> !hls.port
      %12 = hls.uip.port @p_b <input> type %1 sizes(%8, %7) #map5 : (!hls.port, !hls.port) -> !hls.port
      %13 = hls.uip.port @p_c <input> type %1 sizes(%6, %7) #map5 : (!hls.port, !hls.port) -> !hls.port
      %14 = hls.uip.port @p_r <output> type %1 sizes(%6, %7) #map5 : (!hls.port, !hls.port) -> !hls.port
      hls.uip.semantics<%1, %2, %3, %4, %5> (%11, %12, %13, %14, %6, %7, %8, %9, %10) [0 : index, 1 : index, 2 : index, 3 : index] : <!hls.type, !hls.type, index, index, index> (!hls.port, !hls.port, !hls.port, !hls.port, !hls.port, !hls.port, !hls.port, !hls.port, !hls.port) {
      ^bb0(%arg0: tensor<?x?xf32>, %arg1: tensor<?x?xf32>, %arg2: tensor<?x?xf32>, %arg3: tensor<?x?xf32>):
        %15 = linalg.generic {indexing_maps = [#map6, #map7, #map8], iterator_types = ["parallel", "parallel", "reduction"]} ins(%arg1, %arg0 : tensor<?x?xf32>, tensor<?x?xf32>) outs(%arg2 : tensor<?x?xf32>) {
        ^bb0(%in: f32, %in_0: f32, %out: f32):
          %16 = arith.mulf %in, %in_0 : f32
          %17 = arith.addf %out, %16 : f32
          linalg.yield %17 : f32
        } -> tensor<?x?xf32>
        hls.uip.semantics.output %15 -> %arg3 : (tensor<?x?xf32>) -> tensor<?x?xf32>
      }
    }
  }
  ml_program.global private mutable @global_seed(dense<0> : tensor<i64>) : tensor<i64>
  func.func @forward(%arg0: tensor<1x1x32x32xf32>) -> tensor<1x10xf32> {
    %c1 = arith.constant 1 : index
    %c10 = arith.constant 10 : index
    %c1024 = arith.constant 1024 : index
    %cst = arith.constant 1.000000e+00 : f32
    %cst_0 = arith.constant 0.000000e+00 : f32
    %cst_1 = arith.constant dense<[0.0212234668, -0.00784281268, 0.0215699039, 0.0095346421, -1.07556581E-4, 0.0018687211, 0.0249729753, 0.0214931443, 0.0253562741, 0.00121555105]> : tensor<10xf32>
    %cst_2 = arith.constant dense<"…"> : tensor<1024x10xf32>
    %1 = hls.fdf.dispatch : tensor<1x10xf32> {
      %2 = hls.fdf.task : tensor<1x1024xf32> {
        %collapsed = tensor.collapse_shape %arg0 [[0], [1, 2, 3]] : tensor<1x1x32x32xf32> into tensor<1x1024xf32>
        hls.fdf.yield %collapsed : tensor<1x1024xf32>
      }
      %3 = hls.fdf.alloc_tensor : () -> tensor<1x10xf32>
      %4 = hls.fdf.alloc_tensor %cst_0 : (f32) -> tensor<1x10xf32>
      %5 = hls.fdf.task : tensor<1x10xf32> {
        %7 = hls.uip.instance @vitis::@gemm<[f32, index, 32 : index, 4 : index, 1024 : index]> (%2, %cst_2, %4, %4, %c1, %c10, %c1024, %cst, %cst_0) : (tensor<1x1024xf32>, tensor<1024x10xf32>, tensor<1x10xf32>, tensor<1x10xf32>, index, index, index, f32, f32) -> tensor<1x10xf32>
        hls.fdf.yield %7 : tensor<1x10xf32>
      }
      %6 = hls.fdf.task : tensor<1x10xf32> {
        %7 = linalg.generic {indexing_maps = [#map9, #map10, #map5], iterator_types = ["parallel", "parallel"]} ins(%5, %cst_1 : tensor<1x10xf32>, tensor<10xf32>) outs(%3 : tensor<1x10xf32>) {
        ^bb0(%in: f32, %in_3: f32, %out: f32):
          %8 = arith.addf %in, %in_3 : f32
          linalg.yield %8 : f32
        } -> tensor<1x10xf32>
        hls.fdf.yield %7 : tensor<1x10xf32>
      }
      hls.fdf.yield %6 : tensor<1x10xf32>
    }
    return %1 : tensor<1x10xf32>
  }
}

